rlhw/ddqn_model_last.pt (torch, 412285 bytes, 8 tensors)

net.0.weight f4 [256, 6]
00000000: 3816 b23e 1cfe ff3e fe94 54be ac66 3e3f
00000010: 9540 f9bb 99ba e03a 2f27 1ebf 59e6 d13d
00000020: ac2f 5f3e 443f 4cc1 e54d 723d 0cde 84bb
00000030: 412c 903e ec0d 2abd 14d1 9d3d ce64 1bc1
00000040: 3139 75bd d035 a9ba 2229 43be 581e d53d
00000050: f69b 40be 181a 44bd 00cb 29be eea8 8a3e
00000060: 23ff a4be 41b9 40be 6817 ecbd 165c 7bbe
00000070: 78d3 1d3d a272 cebe a178 ab3e b904 1abf
00000080: 68f7 573e 7956 35bc 24df 64be 9d06 2c3e
00000090: c9de 59bd 0eff 983e 39eb 93bd ea23 7140
000000a0: f3d9 15bd e1e3 99bd 5991 ff3d f057 3b3e
000000b0: faa6 473d d12a e13f be72 f63e 3218 86bd
000000c0: 6c4c 543e 23cd 7ebe ede9 cebe 3e84 21be
000000d0: 5553 a0be f882 ab3e 71b4 6fbe daf1 1e3e
000000e0: 34ef f23c 0842 8340 a2b8 863f 10b7 c7be
000000f0: 8517 3bbe 01e9 ffbe e131 483e 2c52 2bbe
00000100: b592 57bd a93d 0fbb b25c ad3e dec6 77be
00000110: 6c52 79be 4656 79be 1e01 bc3e 7c50 0b3e
00000120: f621 c93e 7880 acbe 3753 cfbe 3a88 a3be
00000130: 8a9b 8cbe 5453 293e 38b1 153e b4ae ad3e
00000140: c3e3 57be 587e 8ebe 64ce 5d3e e7f9 28be
00000150: 3a13 a73d 5fbf 97be 4726 0a3e 8b80 5fc1
00000160: 1a70 26bc a4eb 1ab9 72e2 913d 9dcf 83be
00000170: 5229 523e b063 44bf 82e0 b8be 2911 7abe
00000180: 0065 bf3e fa0f 0dbe 4a34 14be ea3f cabe
00000190: 1467 6fbe e8db d03d 90b7 5cbd 1aba 97be
000001a0: 40e5 1c3c a4c7 8ebe a455 b1be d433 66be
000001b0: b844 1bbf 7998 d5be 7fd6 b43e e576 26c0
000001c0: afe0 1d3e 482f e0be 4005 9cbe bccb 2fbe
000001d0: b038 fc3d 3021 2140 1771 92bd 2321 7cbe
000001e0: 004a 943a 6e8e 1bbe 30c0 e7bc eaa3 8dbe
000001f0: f478 8fbe 92e3 73be 99e5 2fbe 142b f1be
00000200: 5861 ab3e 1e31 13c0 ab0f 643e aec9 c93a
00000210: 0a00 b1be c0a6 903e e80b e6bd 7e3f 20be
00000220: 0281 adbe 75cd cfbe 9bf1 463e 4200 50bc
00000230: ac45 ff3d 3c7c 903f 38bb e73d fee2 93be
00000240: 43eb 9cbe 2fac b63d 3b75 8d3d 8c53 5ec1
00000250: 634b 033e bd1b 3cbe c86a d23d 03d0 33be
00000260: 003f 37bd a673 9cbe fa63 be3e a269 99be
00000270: 2512 953e 5a2b 87be 72b0 3abd d0cf b83e
00000280: 7c3e 553f f27d 503b 14f8 163d c756 0bbf
00000290: 59c8 4f3e e9ec 46c0 dea2 77bf 14ac 933e
000002a0: e467 ba3d 8e4b 67be e996 53be 80b6 9fbc
000002b0: bc6b 693e 60a6 d5bd d686 6ebe 2e28 0fbe
000002c0: ea27 9cbe c016 153e d4ca a13e 66c8 c4be
000002d0: 32b9 f0bb 5342 463e afd6 9bbd 7ef2 8440
000002e0: 4770 2fbc 0a19 a43e a451 1c3e 5ceb 92bd
000002f0: fc65 ddbd 50e4 323d fcb2 93bd 0c28 f9bd
00000300: 144b 9b3e bfdb f23e f071 25be e2d9 dbbf
00000310: 9789 063e eac2 183c 9001 c93d 204d ea3d
00000320: c0d8 bdbe 5c46 1abe 4806 b03e 1cda 223e
00000330: 4057 a6bc e10a 7cbe 49c3 7fbe 6a3c bbbe
00000340: 7244 08be 0c2d 0d3e 1647 853e c802 413e
00000350: c7c3 b8be b865 7bbe 08f3 83bd cc32 ca3e
00000360: f325 4f3d 71e4 52be cbae 133e fbd9 92c0
00000370: b4dc 8ebe 1b61 143e 1d16 3ebe d89b a7bd
00000380: e6ef cfbe 9ee4 8b3e f85c 9e3e 305b 183e
00000390: 17bf 91be 144b cebe a2c3 a9be 5cde 9b3e
000003a0: d8b4 483e d6e4 af3e f09b 843e 17c4 0e3e
000003b0: 0f2f 45bd b9f6 e23e ef64 bfbd e562 06bf
000003c0: dc21 2b3e 513f 4dbe 0c44 a8bd 7c96 70be
000003d0: 145b 98bd 261e 93be 3994 88be a4ab 0a3e
000003e0: d47b f8bd fc09 813e e81c 06be 2055 99be
000003f0: f084 93bd 98a5 4abe a4cb ffbd 36fd c6be
0.34782577 0.49998558 -0.20759961 0.74375415 -0.0076065757 0.0017145454 -0.6177854 0.102490135
0.21795529 -12.765446 0.059156317 -0.0040547904 0.28158763 -0.041517183 0.07705894 -9.7121105
-0.059868995 -0.0012909714 -0.1905866 0.10406178 -0.18809494 -0.047876447 -0.16581345 0.27082008
-0.32225904 -0.18820669 -0.11527902 -0.24546847 0.03853175 -0.40321833 0.3349047 -0.60163456
0.21090472 -0.01106798 -0.22350746 0.16799398 -0.05319098 0.2988209 -0.072225995 3.767817
-0.036584806 -0.075141676 0.12478895 0.18295264 0.048743226 1.7591192 0.48134416 -0.06547584
0.20732278 -0.24882941 -0.40412846 -0.15773103 -0.31313577 0.3349836 -0.23408677 0.15521947
0.029655077 4.1018105 1.0525095 -0.39006853 -0.1827069 -0.49982455 0.19550277 -0.16730565
-0.052630145 -0.002185682 0.33859783 -0.24196956 -0.24347848 -0.24349317 0.36719602 0.13604921
0.39283723 -0.33691764 -0.40493175 -0.3193987 -0.27462417 0.16535693 0.14618385 0.3392235
-0.21082978 -0.27830768 0.21660763 -0.1650158 0.08157964 -0.29638192 0.13491164 -13.968883
-0.010158563 -0.00014774367 0.07123269 -0.25744334 0.20523575 -0.7671461 -0.36108786 -0.24420609
0.37381744 -0.13775626 -0.14473072 -0.39501888 -0.23379165 0.10198194 -0.053885996 -0.29634172
0.009576142 -0.2788669 -0.3463565 -0.22480708 -0.6065173 -0.4171789 0.35319898 -2.6010067
0.15417741 -0.43786073 -0.30472755 -0.17167562 0.123155 2.5176506 -0.071504764 -0.24622016
0.0011313558 -0.15191051 -0.028289884 -0.2766412 -0.28021967 -0.2381728 -0.17177428 -0.47103179
0.33472705 -2.2998729 0.22271602 0.0015395188 -0.34570342 0.2825222 -0.1123274 -0.1564922
-0.33887488 -0.4058644 0.19428103 -0.012695374 0.12464461 1.1287913 0.11315006 -0.2888412
-0.3064824 0.0891956 0.069071256 -13.895397 0.12821727 -0.18369956 0.10274273 -0.17559819
-0.044737816 -0.30556983 0.3718565 -0.29963404 0.29115406 -0.26400262 -0.045578428 0.36096048
0.8329847 0.003181335 0.03685768 -0.54429287 0.2029127 -3.1082098 -0.9673289 0.28842223
0.09101847 -0.22587416 -0.20663036 -0.019496202 0.22795004 -0.10432124 -0.23293623 -0.13980171
-0.30499202 0.1455946 0.31600058 -0.38434142 -0.0073462958 0.19361238 -0.07609307 4.154601
-0.010707921 0.32050353 0.15265518 -0.071737975 -0.108104676 0.043674767 -0.07211873 -0.121658415
0.30330718 0.47433278 -0.16156745 -1.7175868 0.13138424 0.009323815 0.09814751 0.11440492
-0.3707943 -0.15065902 0.34379792 0.15903515 -0.020305276 -0.24613525 -0.24976839 -0.3656953
-0.1330736 0.13786715 0.26030797 0.18848717 -0.36086866 -0.24550521 -0.06442839 0.3949188
0.0505733 -0.20594956 0.14422147 -4.589109 -0.27902758 0.14490168 -0.18563123 -0.08184022
-0.40612715 0.2732286 0.30930305 0.14878535 -0.28466102 -0.40291655 -0.33157068 0.30443084
0.19600236 0.34354275 0.2590022 0.1394199 -0.04814058 0.4432886 -0.093454234 -0.5249465
0.16712135 -0.20043685 -0.08216104 -0.23494905 -0.07439247 -0.2873394 -0.26675585 0.13542038
-0.12132993 0.2520293 -0.13096964 -0.29947758 -0.0720309 -0.19789732 -0.12490013 -0.3886506

net.0.bias f4 [256]
00000000: 9f79 6d3e 858e d7be 0d9b fabe ea6b 06be
00000010: c60d 15be 0595 a63e 2592 5a3e 0a48 b23e
00000020: b840 e53d 4ce8 80bd 147d ab3d 2c80 8f3d
00000030: 0f09 a4be 9036 77be e92a 79be 1c7e 84be
00000040: ec7b 1d3e d0f7 203e e3fe 253e c48b c23d
00000050: 26ad 0ebe ebbd 19bf 3d17 99be 5d0d 13bf
00000060: a752 493c d8db 613e 7369 d33e 4fc0 73be
00000070: 28e8 03bd f849 f8bd 5a3e e4bd 8431 063e
00000080: f187 243e b0d3 9a3c 28d8 533d 24b0 1b3e
00000090: 46d4 b9be ae47 79be 3841 c53d dc1c e7bb
000000a0: fb62 3dbe 6090 2f3e 80a4 723b 81ca c5be
000000b0: 0dfb 11be 88ee b6be a44b 39bf f833 be3d
000000c0: 429e ee3d 8caf 7d3e 90f2 d73c e8b1 053d
000000d0: 9b65 02be b60d 9f3e 0c8d 45be 6493 793e
000000e0: e079 cc3d 5e71 8bbe c76e 233e a8d9 00bf
000000f0: cc97 03be 0645 47be 8f33 8ebe 2442 563e
00000100: 49d4 babe 3604 e43d 86e5 1dbf d883 4bbd
00000110: 3077 c73c c498 943e ca49 17be 80a6 f03d
00000120: 0484 813d b53a de3e 00d4 c63c 0089 1c3e
00000130: feed dbbe 6087 47bf 5f8c 6a3e ea4e 98be
00000140: 0c56 8ebd 5ff8 cdbe f9d7 123f e0b0 b4bd
00000150: 5621 9fbe 08ec 0abe 12f1 343d 12a0 0b3d
00000160: dd48 fa3e 8c29 abbd 38eb 443e b2a6 57bf
00000170: 2467 db3e 25e3 253d 8ed6 863e b2b9 6fbe
00000180: f837 dfbd 3e3a 743d c17c 1bbf 2046 a6be
00000190: d616 c9be 5948 2abe ee01 853e 4f78 693e
000001a0: b0e3 cb3c ed7f bebd dc59 83be b04a 303d
000001b0: 23ed fbbe 90e0 febd 8441 b43e 5dc5 23bf
000001c0: 480e 753d b07e 19bf 60ed 62bc fdbe 93be
000001d0: 63e6 ab3e 1b33 e1be 78c8 853e b4ce 20bf
000001e0: a530 5b3e 8e03 9dbe ce8d 1b3e da9a e5be
000001f0: 7228 a3be fc96 98bd 8ca9 873e 5c01 093e
00000200: cb0f 27bf d8bd 193d 64c2 c0be f0e6 0c3f
00000210: 1f76 0bbe 4e86 88bd 4046 55be c738 233e
00000220: 6c48 04be 7843 463e 1e42 8c3e 924c 803e
00000230: 486b da3d db11 34bf 9a5a 963e 08dc 0bbe
00000240: 59f2 13bf 3af2 7cbe 82f2 543e aedf 0b3e
00000250: 4c1a 813d 329f de3e cbf1 40bf 00ce 7c3a
00000260: 379d 57bf 2848 0e3e 1deb 94be 60fe 14be
00000270: 538b c23e 36c3 c73e 9efc 7abe 2e05 68be
00000280: f017 4f3d 05fc c33e 071d 83be 9339 69be
00000290: a74b 89be 529f b43e 8741 383f 125e 4abe
000002a0: 3935 1a3e ec2b 4c3e 1e03 a83e 52aa 28be
000002b0: 40ae 523c ae91 993e 6a18 7d3e 2274 ce3e
000002c0: 6099 efbd bf9d 0c3e 6ae9 3e3e 64e3 8dbe
000002d0: e018 a63d 528e 94be 59fc 3c3e 86c1 3bbe
000002e0: d41f acbd 201f 7a3e 8ceb 30bf 087b 26bf
000002f0: db1d 56be 40a0 fb3e df3a 093f edbe f5be
00000300: a86e 9f3d 6d8c bdbe 8c09 42be b7f9 013f
00000310: 72fd cebd 34a8 e4bd b42c 353d acff a13d
00000320: e0d8 c33d d774 e5be 702e 76be fc62 8a3e
00000330: c64e 6dbe 84f6 c73e c54d 05bf c260 19ba
00000340: b01e 983e e63d c93e a027 c33d 7d2e 203f
00000350: 000e 6aba 6c00 b23d a666 893e e3cb 923e
00000360: ee81 30be ea49 bc3e 0d9a 853e 302e 3bbd
00000370: aa99 e33e 688f 58be 707a 6f3e 3884 2a3f
00000380: e829 90be 1694 d7be c227 19bf e8f4 cebe
00000390: f469 b1be a020 03bf 018c 0cbd f8c0 933e
000003a0: 283e d63d ac0c 683e a86e 2d3e 4a27 83be
000003b0: 9bf6 a5be 8a72 c8be 7a7a 7b3e 5708 d9bd
000003c0: 10d3 0fbd 30df 8dbe 6161 a1be da20 a1be
000003d0: cdf6 453e 3891 043e afb4 20bf 1062 333d
000003e0: e0b1 f23c a098 4ebd 5aa9 9c3e 297f 2c3e
000003f0: 6b55 8bbe 8150 18bf d0a9 a0bc 11cb c1be
0.23190926 -0.4210092 -0.4894642 -0.13127103 -0.14556035 0.32535568 0.21344812 0.34820586
0.11193985 -0.06294307 0.08373466 0.07006869 -0.3203816 -0.24141908 -0.24332775 -0.25877464
0.15379304 0.15719533 0.16210513 0.094993144 -0.13933238 -0.60055417 -0.29900542 -0.57442266
0.012287772 0.2205652 0.4129139 -0.23803829 -0.032203823 -0.121234834 -0.11144705 0.13104826
0.16067483 0.018899769 0.051719815 0.15203911 -0.36294764 -0.2434375 0.0963158 -0.007053001
-0.1849479 0.17144918 0.003702432 -0.3863106 -0.14255925 -0.3572886 -0.72381043 0.09287256
0.11651279 0.24773997 0.02636078 0.032640368 -0.12734072 0.31065148 -0.19292086 0.24372631
0.09984183 -0.2723493 0.15960227 -0.5033212 -0.12850875 -0.19459924 -0.2777371 0.20923668
-0.36490086 0.11133616 -0.6167835 -0.049686283 0.024348825 0.290228 -0.14774242 0.11750507
0.06324008 0.43404165 0.024271011 0.15286636 -0.4295501 -0.7794094 0.2290511 -0.29747707
-0.06950006 -0.40228555 0.573608 -0.08822799 -0.3108012 -0.13566601 0.044175215 0.0340882
0.48883715 -0.08357534 0.19230354 -0.8423873 0.42852128 0.040499825 0.26335567 -0.23410681
-0.10899347 0.059625857 -0.60737234 -0.32475376 -0.39275235 -0.16629161 0.25978035 0.227998
0.024888843 -0.09301744 -0.25654495 0.043039978 -0.49204358 -0.12445176 0.35206234 -0.6397303
0.059828073 -0.59958935 -0.01385054 -0.2885665 0.3357421 -0.43984303 0.26129508 -0.62815404
0.21405275 -0.30666775 0.15190813 -0.44844705 -0.31866795 -0.07450673 0.26496542 0.13379425
-0.65258473 0.037534565 -0.37648308 0.5503988 -0.13619278 -0.066662416 -0.2082758 0.15939628
-0.12918252 0.19361675 0.27394193 0.2505842 0.106649935 -0.70339745 0.29365999 -0.13658154
-0.5779167 -0.24701777 0.20795634 0.13659546 0.06303844 0.4348083 -0.75368947 0.00096437335
-0.84224266 0.13894713 -0.29085627 -0.14550161 0.3799692 0.39016122 -0.24510428 -0.22658226
0.050559938 0.38278213 -0.25608084 -0.22775869 -0.2681553 0.35277802 0.71974987 -0.19762447
0.15059365 0.1993863 0.32814878 -0.16471222 0.012858927 0.29993957 0.24716344 0.40322977
-0.11699176 0.1373205 0.18643728 -0.27712548 0.08110213 -0.29014832 0.18455638 -0.18335542
-0.08404508 0.24425936 -0.69109416 -0.6503148 -0.20909826 0.491457 0.53605455 -0.47997227
0.07784778 -0.370212 -0.18948954 0.5077166 -0.101069346 -0.11164895 0.044232085 0.07910094
0.0956285 -0.44815704 -0.24041152 0.27028644 -0.23174581 0.39055264 -0.5207179 -0.0005850905
0.29710913 0.39305037 0.09529042 0.62570935 -0.0008928478 0.08691487 0.26836127 0.28671178
-0.17237064 0.36775142 0.26094094 -0.045698345 0.44453174 -0.21148455 0.2338655 0.66608
-0.28156972 -0.42105168 -0.5982629 -0.40421224 -0.34651148 -0.51221657 -0.034313206 0.2885816
0.10461074 0.22661084 0.16936743 -0.25615913 -0.32414708 -0.39149886 0.2455844 -0.10597294
-0.035113394 -0.2770934 -0.31519607 -0.31470376 0.19332428 0.12946022 -0.627757 0.04379469
0.029625833 -0.050438523 0.30597955 0.16845383 -0.27213606 -0.5949784 -0.019612223 -0.3785024

net.2.weight f4 [256, 256]
00000000: 66b6 0ebb d22b 223e 9332 373e bc20 fdbc
00000010: e89f afbc ac22 8dbb e1d6 373d 40bb d33b
00000020: d4ee 0fbd 7752 54be 1688 4a3d 888c 0dbc
00000030: 4028 d7bb b871 85bc ef5d 6a3e 0811 173e
00000040: 76f5 443d 5e5f 14bd 8cfb 503d 0995 18bd
00000050: 4813 f0bc 17ae 333e 80c9 2b3a cd30 3b3e
00000060: 826c e9ba 0488 0bbd 0949 bebd 5e8a 2d3e
00000070: 54dc 44bd ec58 063d 15f3 12be 4c18 973c
00000080: 8dd6 9fbd 70f3 85bc 4a67 1e3d 02f6 4bbd
00000090: beb1 993d 1067 3b3d 84f3 973c add7 e9bd
000000a0: a822 6fbc 3c51 1cbd e6ab 1b3d 4e34 fb3d
000000b0: 907f 90be c52b 253e 11ac bf3d 609b 02bd
000000c0: e4eb dabc 3a79 2d3d ee94 103d 18df fbbc
000000d0: d36f 67bc b0f6 3d3c fea0 063d f896 743c
000000e0: a095 353d 1e21 4bbd 4881 fcbc 5368 993d
000000f0: 1a14 103d 1064 3e3d 9c28 a23c 4447 b83d
00000100: 28be 28bd 4757 86bb af48 3c3d 90b9 203d
00000110: d45b b33c d675 3bbd a8f3 f73c da93 693d
00000120: fa6f 7cbd c5f3 d83c c80d 1d3c c081 be3b
00000130: cfd7 90bf 110b d03d 6c57 7c3d 4846 4a3d
00000140: 2801 d53c 0641 a13d 2e61 e8bd f843 3f3c
00000150: 5821 36bd e735 153e a4a6 733d 6197 013d
00000160: ba60 33be be2f 1bbd 2038 3d3d 1cf2 943e
00000170: 62ca 353f 0fcf 473c 3854 30bc d436 83bc
00000180: ac0c 303d 4048 4dbb d083 813e aa82 303d
00000190: 5820 6abd 0f58 d03d b6ac 203a 80c0 0abd
000001a0: 140a dd3c 09eb 493e 4e21 603d 3e3b 20bd
000001b0: 76c6 cd3d c84c 39be 1050 00bd 5f13 f53d
000001c0: 8c43 4a3d 7527 453e a832 52bd d28e 193d
000001d0: c9ff ccbd c2a0 e6bf 4a44 55bd 97ab 9c3e
000001e0: 4cf9 dd3d a6e3 6abd 6ddc 06bd a8c1 d73d
000001f0: 6a3c 083e 5846 3bbc d48a 5f3d 8022 1abd
00000200: 226a dc3d 985a 3fbd 5d90 d23c 7346 2dbd
00000210: 044f 353e 9c53 bb3d 5082 a33c 5a67 33bb
00000220: 89d9 52bd 14d0 573d 1f2c 00bd 7495 83bc
00000230: 2037 59bd 1a32 193e b4a9 5fbd 8451 d63c
00000240: 0467 483e 613d e3bd 14aa 843d a2f9 e43c
00000250: dcb4 4c3d 7958 ddbd 7e9e 303e 5019 f73b
00000260: 38f9 4c3e 6eba 2e3d c055 73bd 0e32 4ebd
00000270: 071a cc3c 24ba 19bd da86 38bd c045 48bb
00000280: 78e4 a3bc 2bac 12be e4b2 b53c 20dc 743d
00000290: 8648 5cbd d1a7 c1bd 3e8b a8bd 50bf 443c
000002a0: 4466 f33d 40c6 153c 9cfd 95bc 77c5 003d
000002b0: 30e8 d7bc 70ef 2cbd 0570 f1bc 4e12 7d3d
000002c0: 805f 2bbc 632b a5be c394 973d 40fc 9fbb
000002d0: acb8 09bd f026 26bf 7990 8bbb 60c0 b63c
000002e0: fb3c ce3f e00d fabb f6f8 1c3e e6ba 2c3e
000002f0: 9013 9a3c 99e9 8dbd ef54 833b acdd 613e
00000300: 7437 ad3c a277 01bc 3e49 4dbd 9d3c 9cbd
00000310: c2c1 443d 4066 963b 503d e1bb e8fe ce3c
00000320: f41f 2a3d 06a3 2f3d 88e8 72bd e057 03bd
00000330: 7075 c63d 589f 2bbe 0bde 14bf 00c1 913d
00000340: 9006 59bc cfd8 babd f414 e83c 1660 2ebe
00000350: 20e5 53bb 5cfd 33bd 2cdf 403c 7ffb 3f3d
00000360: 80ad 26bb c04e bfbc 18d4 8d3c 70a8 84bc
00000370: f9d1 b6bd 62c8 3cbd d8e9 58bc 5945 0bbe
00000380: 307c 543d 6292 2d3e c181 383e 1792 103e
00000390: 11b2 52bc b36e 963d 09cb f13d 303c 15bd
000003a0: ef84 4a3d 00ce 13b9 a43f 50bd 4b71 d2bc
000003b0: 244c 823c 66be 6fbe ada5 923d a86b d63d
000003c0: d4a0 0bbd 9ca3 dabc a0c9 013d 5667 37bd
000003d0: c74d 333c 8e65 b9bd 0150 6b3e 9c22 353d
000003e0: 4027 a23b f443 37bd b196 29bd 8748 a3bc
000003f0: 3397 e3be 5c78 ec3d 882f 3a3c 7446 713d
-0.0021776198 0.15837029 0.17890386 -0.030899398 -0.021438554 -0.0043071117 0.04488266 0.006461531
-0.035139874 -0.20734583 0.049446188 -0.008639462 -0.0065660775 -0.016289577 0.22887395 0.1475259
0.048085652 -0.03622376 0.051021144 -0.037251506 -0.029306069 0.17546879 0.0006553158 0.18280335
-0.0017808827 -0.03406526 -0.09291274 0.16947314 -0.048061684 0.032799646 -0.14350541 0.018444203
-0.07804594 -0.016351432 0.038672723 -0.04979516 0.07504605 0.045752585 0.018548734 -0.1141809
-0.014595665 -0.03816341 0.038005732 0.12265836 -0.28222322 0.16129978 0.09358991 -0.03188646
-0.02672381 0.04235194 0.03529828 -0.030746028 -0.014125782 0.011594459 0.032868378 0.014928572
0.044332147 -0.04959213 -0.030823365 0.074906014 0.03517542 0.046482146 0.019794755 0.08997968
-0.041196972 -0.0040997597 0.045967754 0.039239466 0.021894373 -0.045766674 0.030267552 0.057025768
-0.061630227 0.026483426 0.009585805 0.0058138072 -1.131586 0.10158361 0.06160681 0.04938343
0.026001528 0.0787373 -0.113466606 0.01167392 -0.044465393 0.14571343 0.059485093 0.031638507
-0.17517367 -0.037887327 0.046196103 0.29090965 0.71011937 0.012195363 -0.010762267 -0.016017355
0.042980835 -0.0031323582 0.25295877 0.04309336 -0.05715975 0.10173046 0.00061292516 -0.03387499
0.026982345 0.19718565 0.05471926 -0.039118998 0.10047619 -0.18095696 -0.031326354 0.11966585
0.049380824 0.19253333 -0.05131784 0.03748972 -0.10009725 -1.8017809 -0.05206708 0.30599663
0.10838565 -0.05734601 -0.03292506 0.10534984 0.13304296 -0.0114303455 0.054575756 -0.037630558
0.10762431 -0.046717256 0.025703603 -0.042303514 0.17705923 0.091468066 0.019959599 -0.0027374835
-0.05147699 0.052688673 -0.031292077 -0.016062476 -0.053031087 0.14960518 -0.0546052 0.026161917
0.19570547 -0.110956915 0.06477752 0.027951065 0.04997717 -0.108078904 0.1724796 0.0075408593
0.20016944 0.042658262 -0.05940795 -0.050340705 0.024914755 -0.037531033 -0.04505048 -0.0030559152
-0.020006403 -0.1432349 0.022180028 0.05978024 -0.0537801 -0.094558366 -0.08229683 0.012008503
0.1188474 0.009141505 -0.018309407 0.031438317 -0.026355833 -0.042220533 -0.02947236 0.061785035
-0.010459781 -0.32259664 0.07401421 -0.0048823655 -0.033623382 -0.64903164 -0.004259166 0.022308528
1.611236 -0.0076310486 0.15329346 0.16868171 0.018808156 -0.06929321 0.0040079276 0.22057217
0.021144606 -0.007902058 -0.050118677 -0.076287486 0.048036344 0.004589826 -0.006873764 0.025268033
0.04153438 0.04288008 -0.05930379 -0.032066226 0.09690368 -0.16760004 -0.5815131 0.0711689
-0.0132461935 -0.09123384 0.028330304 -0.17028841 -0.0032332614 -0.043942794 0.011771958 0.046870705
-0.0025433004 -0.02335298 0.017313048 -0.016193599 -0.08926768 -0.046089537 -0.013239346 -0.13600673
0.051876247 0.16950372 0.18018247 0.14118229 -0.012859837 0.07345333 0.11806304 -0.036434352
0.04944318 -0.00014095753 -0.050841942 -0.025688788 0.015905447 -0.23412475 0.071605064 0.104697526
-0.034088925 -0.026689343 0.031686425 -0.044776283 0.0109438365 -0.09052573 0.22979738 0.04422246
0.0049485266 -0.04474254 -0.041403476 -0.019932045 -0.44451293 0.11546394 0.011363871 0.05890508

net.2.bias f4 [256]
00000000: 0480 25bd 66c2 b9bc 2355 49bd 084a 5e3b
00000010: b6a4 9abd dd74 bb3d 2bf8 003d 64d3 393d
00000020: 136b 92bc 0ba9 8fbb 020d 0d3d aa5c 70bc
00000030: df69 073e 23a6 e73c 527f f83d da33 15bd
00000040: 049d 183d d289 9f3c 8866 773c 1382 46bc
00000050: 5e54 c9bc 37f8 fa3d d5dd d6bb 80ef 9cbd
00000060: 0eb5 62bc f1cf e6bc d16a ff3b c83d 35bd
00000070: 0579 17bd ae23 4dbd e0e9 87bb 4bd3 47bd
00000080: 0d78 30bd b80a 683c 7a8b af3b b7f6 be3c
00000090: c806 ffbc c8e0 19bd bee2 ce3b b405 fdbc
000000a0: d1ff 54bd adfc e3bb 5d30 383d 947c 99bc
000000b0: f11f ba3c b58c 833d b87d e63c 815c d6bc
000000c0: 1d33 2cbd 5f46 543b 3b00 63bb e14a 54bd
000000d0: 776a 47bd 54fc f7bc 541c 80bc 47df 9c3b
000000e0: 8901 8b3c 0486 0a3e 5cd9 9cbe c385 abbc
000000f0: e00e e83b f89c ed3c 8b0d 023d 9aff 55bd
00000100: 3eed fbbb 424c fbbc 4008 2e3d c922 5eb9
00000110: 8b65 dbbc c669 8fbd a1af a43c 33cf e7bc
00000120: 6d07 afbb 7f3a f3bc e0e3 1dbd 76fb 8cbd
00000130: 1bd3 123e 3483 bdbc 4855 36bc 604a f93c
00000140: 8a2a 363d 0d48 93bc 436a 203d 7310 593d
00000150: 10c1 1b3d 2fa5 cd3c d4b5 5abd a832 9a3b
00000160: c56d 73be 985f 50bc d532 eebc f9b8 2f3d
00000170: 5ce2 ac3d 50e2 043d aa75 c4b9 a61a 57bd
00000180: b87c 28bd f87b 383d 0fe2 7cbc e5cd 16bd
00000190: 5233 1cbd 63e8 c83a 6c64 863c c048 533c
000001a0: b52d 2bbd e916 f33c aaf2 4bbd 5462 493b
000001b0: da0e be3c 3304 5abc 8b5c 8cbb 8053 bdbc
000001c0: 1d44 debc 4e79 0abd 0320 1dbc 37ba 10bd
000001d0: 7d6d 07bd a011 8cbd 9511 523e 9403 8ebd
000001e0: 0747 8e3c d76e 883d a0d6 6c3d 5344 94bd
000001f0: 4561 323d 11f9 5abd bfe4 7a3d 4559 ab3c
00000200: bb97 693d 3527 de3c 67b3 51bd 9007 cbbd
00000210: 1380 d4bc 4058 733b 4de9 b1bb 0236 bd3c
00000220: 5a2a 2d3d d7f0 2abb 5b10 da3d 782e 093e
00000230: fa0f 083c 8de4 2dbe 89fe 5ebc 43ce dd3c
00000240: 1883 1c3c 36a3 003d 3317 b03c 5798 70bd
00000250: 30ac 883b dcef 253d 52f5 d5bc 51b0 4abd
00000260: 32f5 e73d 9a41 36bd 5f1d 283d ad6c bc39
00000270: accc 50bd 48fe 24bd 36e2 263c 27eb 24bd
00000280: 8f0e 3d3d f0df 76bd bef0 f93d 6d36 21bd
00000290: 905f 78bd a8d2 3c3d be9c 003d b19c 0bbd
000002a0: 2ae8 0f3d 7d5f 2b3d 6963 8c3d b6cf 453d
000002b0: 5e6b 2ebd 3d89 66bd 0a74 fa3c 56e0 113d
000002c0: 4542 9eba a9cd 51bd 84ec f13c 003a 51b9
000002d0: e93b 673c 8b90 023e 1bc2 c63d a378 443d
000002e0: afd4 c8bc 3b9e 293e 5790 2dbc 0000 9c3d
000002f0: 3b83 7b3c 2a58 0ebc d04d 0b3d 80ed 96ba
00000300: 2814 2d3d 1946 c3bc eecf 323d ec26 cc3d
00000310: ed10 dd3d 405c 2fbb 1b4e d03c ea7c 493c
00000320: f7f6 8dbd c13c 88bc 040e 703e 4ace 863e
00000330: 5122 1b3c 1e7c 0d3d f247 cc3c c7d0 85bb
00000340: c90b c9bb 9151 7b3e d89e 44bd 90c1 903d
00000350: 08f6 b4bc 52e6 7cbd 90fb 05bd 6e66 b23c
00000360: eac0 e03d c8b0 493e 68a7 04bd aa77 043d
00000370: efc0 753d 8cf2 aabd 734b b6bb a800 38bd
00000380: 91f1 8f3e 049e 093d c2ee 24bd d74e b53c
00000390: b6d8 09bc fa03 593d 5665 1e3e 30a7 bfbc
000003a0: e0d0 073e 085c 2b3c 2dae 92bd 18cc dabd
000003b0: c713 e9bd 43e7 04bd bd21 843b 4675 4dbc
000003c0: 20df 803c a4e5 663d 9d9b 89bd bd1b 513d
000003d0: 2a06 933c 68e1 71bd a08f 9c3c ac2d ea3c
000003e0: 00d1 95ba 0a29 853c 955a 033d 1442 0bbd
000003f0: 2d38 853d 511f 37bd 9e0b e33d ed16 953d
-0.04040529 -0.022675704 -0.04915346 0.0033918638 -0.07550947 0.09153149 0.03148667 0.045367613
-0.017873323 -0.004384165 0.034436233 -0.01467053 0.1322398 0.028277462 0.121336594 -0.036426403
0.037259117 0.019474898 0.015100129 -0.012115973 -0.024576362 0.122543745 -0.006557206 -0.076628685
-0.013837112 -0.028175326 0.007794716 -0.044248372 -0.036980648 -0.050082855 -0.004147753 -0.04878549
-0.04308324 0.014162712 0.005357203 0.023311002 -0.031131163 -0.037567884 0.006313651 -0.030886509
-0.052001778 -0.0069576115 0.044967998 -0.018736161 0.022720309 0.06423322 0.02813612 -0.026167156
-0.042040933 0.0032390577 -0.0034637589 -0.051829223 -0.048685517 -0.030271687 -0.015638508 0.004787359
0.016968505 0.13527685 -0.30634582 -0.020937806 0.0070818514 0.029005513 0.031751197 -0.052245714
-0.0076881936 -0.030676011 0.042488337 -0.00021184528 -0.026781818 -0.070025966 0.020103278 -0.028297042
-0.0053414614 -0.029690979 -0.038547397 -0.068839 0.14338343 -0.023133852 -0.011128731 0.030430973
0.044474162 -0.017978692 0.03916384 0.052994203 0.038025916 0.02510318 -0.05339606 0.0047057457
-0.23772343 -0.012718104 -0.029076973 0.042901013 0.08441612 0.03244239 -0.000374717 -0.05251565
-0.041134566 0.0450401 -0.015434756 -0.03681745 -0.03813488 0.0015328046 0.016405307 0.012895763
-0.041791636 0.02967401 -0.04979197 0.0030728774 0.023200441 -0.013306665 -0.004283493 -0.023111105
-0.027132088 -0.03380709 -0.009590152 -0.03533384 -0.0330634 -0.06839299 0.2051452 -0.06934276
0.017367853 0.06661766 0.05782187 -0.07239594 0.043549795 -0.053460184 0.061253306 0.02091659
0.057029467 0.027118305 -0.051196482 -0.09913552 -0.025939977 0.0037131459 -0.005429423 0.023097042
0.042276718 -0.0026083493 0.10647651 0.13396633 0.00830459 -0.16981716 -0.013610491 0.027075892
0.00955274 0.03140565 0.021495437 -0.058739033 0.004170917 0.04051195 -0.026117954 -0.049484555
0.11326064 -0.044496156 0.041043635 0.00035939124 -0.05097644 -0.040281564 0.010185769 -0.04026332
0.046156462 -0.060272157 0.12204121 -0.039358545 -0.06063801 0.046099335 0.03139948 -0.03408498
0.03513352 0.04183911 0.068548985 0.04829379 -0.042582862 -0.056283224 0.03057291 0.035614334
-0.0012074193 -0.051221523 0.029531725 -0.000199534 0.014113405 0.12750451 0.097049914 0.04796661
-0.024515478 0.16564266 -0.010593495 0.076171875 0.015351112 -0.008688012 0.034009755 -0.0011514872
0.04225555 -0.023837136 0.04365533 0.09968361 0.10794244 -0.0026757866 0.025427869 0.012297848
-0.069318704 -0.016630532 0.23442847 0.2632926 0.009468631 0.034542195 0.02493665 -0.004083726
-0.006135438 0.24542834 -0.048003048 0.07068169 -0.022089973 -0.061743088 -0.03271061 0.021777358
0.109742954 0.19696343 -0.032386214 0.032340683 0.05999845 -0.083470434 -0.0055631935 -0.0449225
0.28113988 0.03359796 -0.04026676 0.02213232 -0.008413484 0.052982308 0.15468344 -0.02339515
0.13263273 0.010458954 -0.07162128 -0.10683459 -0.11380725 -0.03244711 0.004032342 -0.012540167
0.015731394 0.056371346 -0.06719134 0.051051844 0.017947275 -0.059052855 0.019111454 0.028586231
-0.0011430085 0.01625492 0.032068808 -0.033998564 0.06504855 -0.0447076 0.110862 0.07279763

net.4.weight f4 [128, 256]
00000000: 6145 8ebe a492 ec3c 60c0 a13c a251 1fbd
00000010: db95 ff3e a15e 8fbe e0f0 483b afbc 353d
00000020: a829 573d dc36 f8be 408f bbba 5b9c 2b3d
00000030: 341a 203d e5b2 94bd 764b 24be 4ea3 49bd
00000040: c0ed ef3b 7abc 90bd ad7e ef3f e602 333f
00000050: c8a4 663d fc26 143f b817 473d 48f5 8ebd
00000060: 78db 223c 3734 06bf 4d6f c2bc 8cba 8fbc
00000070: 088b 6f3e ba89 0cbd 915d da3d 8026 8dba
00000080: c5db 03bd 50dc 0fbc 069a c3bc cc00 f4bc
00000090: e49f eabc 081b 943c f5d2 d7bd 68c0 a33c
000000a0: 6719 e2bc fb99 c13e 79d4 32be 99ae a33c
000000b0: 0e07 4e3f 2e9c 15bd 2abf 32bd 726a 793d
000000c0: c036 393b 60f3 c2bb b5dc 3e3d bae7 1d3d
000000d0: 703e 643d b064 c73c eca1 ecbc 698c adbe
000000e0: a88a dabd c45c e83e 4b8f 12bd c0cb 9bbb
000000f0: 106d 1fbc 0205 2c3d cc18 493d e071 39bd
00000100: cabb 733d b7c0 50bb bae1 57bd 28d5 2d3f
00000110: 924f 1cbc 3e78 e1bc 00e9 80ba 4016 2e3d
00000120: cc04 d7bc 788f a0bc 381c 743d a891 dbbc
00000130: d494 96bf 913b cb3c 5088 5f3d 5e28 dd3c
00000140: afdf bfbe d8a2 a4bc 579f 80be 0abe f2be
00000150: 60ec 923b 04fc 24bd d810 693d e166 233d
00000160: 1130 a9be 26a3 c0bd 02f9 42c0 ccfd 85bd
00000170: 40c1 87be 8cdd 93be 1bf0 80bd e0e8 fabc
00000180: 677c 103d 59c8 463f 681f c13c a505 9cbe
00000190: 1850 3bbc 6c7d 23be 84ba 703d c4d2 c93c
000001a0: 44d5 82bc 325f 10bd ecb8 003d 3d65 c73c
000001b0: 14e9 8b3c 904f 6abd d084 0bbd 3b40 5abd
000001c0: 1ebf 5c3d 1c2f 9bbc 4e4b cb3c 505b 743d
000001d0: 0f17 163c aa2c 543f 828e 673e c505 82bd
000001e0: e024 683d 8962 0cbd ea96 353d 7e28 2cbf
000001f0: 76bf b23e 95e1 83c0 fa57 50be 1cfa 5e3d
00000200: 8807 6abb 84e1 34bb 3027 e4bf 21da d1be
00000210: f819 b0bc b676 34bd ac16 323d 15f9 253b
00000220: 2341 ffbb 0b1e 3ebd faab a53e 344e 6c3f
00000230: 3c98 d1bd 0fd4 55c0 6ff1 883c 8361 de3c
00000240: 785d 713d 853d ac3e 8cc0 6a3d 951a bcbc
00000250: 46bc 5d3d 3fea 39bf dac4 353c 8758 b1be
00000260: db22 983e 507c ae3c 2d8f 45bd facd bb3c
00000270: a694 3abd 302f 0a3d 5367 1cbd 43ea c9bc
00000280: 78d0 3b3c 2442 24bd 60a5 e83e f5c9 723d
00000290: 4622 48bd b91f 6d3e fc43 b83c 367d ddbb
000002a0: 46d9 93be 256a 453d 8db8 a3be ba52 3bbd
000002b0: 16cc 1a3d 0d5e 75c0 6a72 5e3d 6f63 12bd
000002c0: 4d90 84c0 7448 bcbc 8676 7fbd 40b6 c9ba
000002d0: b176 3f3d a056 6a3c 800e 993e c7a3 1abc
000002e0: c42c 933c 5b1f a23d 290f b2bc c5e0 8f3e
000002f0: 803f 803d 3dad 7c3c bfff dbbc c409 0bbd
00000300: af8f 063b d81d 36be 9021 3d3d e6d4 053f
00000310: d646 2c3e 8001 88ba 00ef e73c 3487 0abd
00000320: 8e69 e1bb 10fb bd3b 5147 f2bc f597 4cbe
00000330: 184d 903c 9ec2 ab3f ee0f b2bf 0bdd 373c
00000340: b52e cc3c 4518 143e 8eb5 913d 6fa5 2fbe
00000350: 8ca4 9fbc c832 d23c fc6c b0be 0808 403c
00000360: 1afe 87be 86aa 3a3d 4814 79bd 3218 13bd
00000370: 58a3 fcbc 059e bbbe 1875 5abd d731 bfbc
00000380: 10ac 493e 9ad7 48bd 805e fd3a a8d8 19bd
00000390: 856e 933d ff10 11be 49e9 f03e 0c86 09bd
000003a0: 58b7 6c3e 10c1 043c d589 0c3d 3fbf d0bf
000003b0: 7351 86be c043 84ba d8e3 7e3d 01be 89bd
000003c0: b4eb d1bc b8d1 2d3d 2db9 d53e 460d 9e3d
000003d0: 1ca8 89bd 7c2a 42bd 4019 dd3a a071 f73b
000003e0: 6037 a53b d4a9 9d3d 4096 54bc 064d 7b3d
000003f0: 767e 893f 67dc eb3b 0d9f b8bc 9667 863f
-0.27787307 0.028878517 0.019745052 -0.03889621 0.49919018 -0.28001884 0.003066115 0.044369396
0.05252996 -0.48479354 -0.001430966 0.04189716 0.03908749 -0.07260684 -0.16044411 -0.049228005
0.007322043 -0.07067199 1.8710533 0.699263 0.05630949 0.57871985 0.048606604 -0.069803774
0.009940021 -0.52423424 -0.023734713 -0.017545007 0.2339288 -0.034311034 0.106623776 -0.001076892
-0.03219201 -0.008780554 -0.023877155 -0.029785536 -0.028640695 0.018079296 -0.10538284 0.019989207
-0.027600003 0.3781279 -0.17463864 0.019980716 0.80479515 -0.036525898 -0.04363934 0.06089253
0.0028261393 -0.0059494227 0.0465972 0.03855107 0.055723608 0.024340004 -0.028885804 -0.33896187
-0.10670978 0.45383275 -0.035781186 -0.0047545135 -0.009730592 0.041996963 0.049095914 -0.045274615
0.05950526 -0.0031853148 -0.052705504 0.67903376 -0.009540455 -0.027523156 -0.0009835064 0.042501688
-0.026247405 -0.019599661 0.059597224 -0.026802853 -1.1764169 0.024808677 0.054573357 0.026996788
-0.37475345 -0.020097181 -0.25121567 -0.47410613 0.0044837445 -0.040279403 0.05690083 0.039893035
-0.33044484 -0.09406118 -3.0464482 -0.065425485 -0.26514626 -0.28879964 -0.062957965 -0.030628622
0.03527489 0.77649456 0.023574546 -0.30473056 -0.01143267 -0.15965813 0.058771625 0.024636634
-0.015970834 -0.035247035 0.031426355 0.024340266 0.017078914 -0.057204783 -0.034062207 -0.05328391
0.0538932 -0.018943362 0.024816182 0.059657395 0.009160771 0.8288065 0.22612956 -0.06348757
0.05667579 -0.034273658 0.044333376 -0.67249286 0.34911698 -4.121287 -0.2034606 0.05443774
-0.0035710055 -0.0027600238 -1.7824459 -0.40986732 -0.021496758 -0.044058524 0.043478653 0.0025325466
-0.0077897473 -0.04641537 0.3235777 0.9230683 -0.102341145 -3.341068 0.016716687 0.027146107
0.05892703 0.33640686 0.057312533 -0.022961894 0.05413463 -0.72623056 0.011094296 -0.34637854
0.29714093 0.021299511 -0.048232246 0.022925366 -0.04555192 0.033736408 -0.038184475 -0.024647838
0.011463277 -0.04010214 0.4543867 0.059274632 -0.04886081 0.23156632 0.022493355 -0.006759311
-0.28876704 0.04819693 -0.3197674 -0.04573319 0.037792288 -3.8338654 0.054308333 -0.03573936
-4.142615 -0.022983767 -0.062368892 -0.0015389398 0.046744052 0.01430288 0.29893875 -0.009438462
0.017965682 0.07916137 -0.021735745 0.28101173 0.06262112 0.015422163 -0.026855348 -0.03394486
0.002053242 -0.17784822 0.046174586 0.5227798 0.16823897 -0.0010376424 0.028312206 -0.033820346
-0.006879038 0.0057977512 -0.029575022 -0.19979842 0.017614886 1.3418767 -1.3911111 0.011222134
0.024924615 0.14462383 0.07114707 -0.17152952 -0.019487642 0.02565898 -0.34458148 0.011720665
-0.26561052 0.04557278 -0.060810357 -0.035911746 -0.030839607 -0.36643997 -0.053334326 -0.023339195
0.19694543 -0.04903374 0.0019330531 -0.037560135 0.07198814 -0.1416664 0.47052982 -0.033575103
0.23116815 0.00810267 0.034311134 -1.6308364 -0.26234016 -0.0010090992 0.062229007 -0.067256935
-0.025625087 0.04243633 0.4174284 0.077173755 -0.067215174 -0.047403798 0.0016868487 0.007551387
0.0050420016 0.07698408 -0.0129752755 0.061352752 1.0741718 0.007197905 -0.022536779 1.0500362

net.4.bias f4 [128]
00000000: 4c2a b83d 2e42 bf3c c58e da3c 244f cebd
00000010: cf1f 8dbd efa7 1cbe 7041 143d d004 f4bd
00000020: e485 cebc 86a0 fabd 4a90 a6bc 200e 37bd
00000030: 504c 403c c0d7 97bd 325e 40bd d680 abbc
00000040: 3f13 2dbd 43e8 81bd c678 d7bd 266c 2e3d
00000050: 2d25 11bc 3b0d b0bd 757d 46bd 8f79 4b3d
00000060: 0957 84bd 20d8 12bc 6ada 59bd 7e8d 9cbc
00000070: 5288 51be 84d2 a43c 35d3 a6bc a1a6 9a3d
00000080: 20b4 68bc c23b 9abd 9831 133d 9440 81bd
00000090: 0256 2fbe 294b 0a3d 71d8 1b3c 1936 e3bc
000000a0: bc10 0b3c 3850 bfbc 3407 debc ea05 313d
000000b0: 5e02 cabd 4ad1 99bd ada9 ff3b 36d5 ddbc
000000c0: 244c 04bd 73af 3cbe 121e d8bd b1ce c6bd
000000d0: 273e 8dbd f708 32bd 3d59 59bd b681 19be
000000e0: 7142 2fbd 222d 143d 6327 e43c 69e2 12bc
000000f0: 94e9 073d 2ded 16be 895c 87bc 5644 5abd
00000100: e85b d5bd 7989 f4ba 7d6d 0bbd 38bf d23c
00000110: d0ed 063d beac 4e3a 1984 01be a0e0 da3d
00000120: a050 903e 241b 3bbe 03b6 54bc 7fb3 633b
00000130: 2328 a0bd 5452 c9bc 0eda 57bd efa2 e53c
00000140: 5209 e3bd f64a 04bd d0b7 1abd 481f 36bd
00000150: 5a36 f2bd 366a 143d a51c 9a3d 5a44 08be
00000160: 54a2 94bd d4a9 f7bc 49c0 393e 410b 02be
00000170: a391 55bd fe79 d33b f19d 6ebc 8cdb a3bd
00000180: 0ce4 19bd 96f0 b2bd 08b4 d3bc 1f4e 19bd
00000190: bc1b 75bd c035 ff3c d57a e6bc d3f6 76bd
000001a0: 9684 09be 6734 62bd 59a1 a13e b376 973e
000001b0: 24d7 623d 77bd 1f3c f6e3 033d f400 1bbe
000001c0: a9d2 a6bb 49dd ff3d d175 b6bd 209b 123e
000001d0: eace 79bd b036 65bd 9660 0fbd f7e3 2f3c
000001e0: 9ea5 b23c fa23 a9bc c75d 81bd c61a d93d
000001f0: 86b3 0b3d 8d2e 98bd f0fa 0abd c815 15be
0.089924425 0.023346987 0.026679406 -0.100736886 -0.06890833 -0.15298437 0.03619522 -0.119149804
-0.025210328 -0.12237649 -0.020332474 -0.044691205 0.011736944 -0.07414198 -0.04696483 -0.020935457
-0.042254683 -0.063431285 -0.105210826 0.042583607 -0.008858961 -0.085962735 -0.04845949 0.049676474
-0.06461913 -0.008962661 -0.05318681 -0.019110437 -0.20462158 0.020119913 -0.020364383 0.07551313
-0.014203101 -0.07530929 0.03593597 -0.063111454 -0.17122653 0.033763085 0.009512053 -0.027735757
0.0084878765 -0.023353681 -0.027103044 0.04321853 -0.09863733 -0.07510622 0.0078022094 -0.027079206
-0.032299176 -0.18426304 -0.105526105 -0.09707392 -0.0689662 -0.04346558 -0.05306362 -0.14990887
-0.042787973 0.036175855 0.027850812 -0.008965113 0.03318174 -0.14738913 -0.016523616 -0.053287826
-0.1041792 -0.0018656693 -0.034039963 0.025725946 0.03294164 0.0007884017 -0.12648048 0.10687375
0.28186512 -0.18272072 -0.012982848 0.003474444 -0.078201555 -0.02457539 -0.052698188 0.028031794
-0.11085762 -0.03229805 -0.037772954 -0.044463426 -0.11826773 0.036234103 0.07524995 -0.13307324
-0.07257524 -0.030232348 0.18139757 -0.12699606 -0.052140843 0.0064537516 -0.014564023 -0.080008596
-0.037570998 -0.087372944 -0.025842682 -0.037428018 -0.059840903 0.03115356 -0.028134743 -0.060293984
-0.13429484 -0.055225756 0.3156841 0.29582748 0.055380955 0.009749762 0.032199822 -0.15137082
-0.0050910306 0.12493379 -0.089091904 0.14316988 -0.060988344 -0.055960357 -0.03500422 0.010735503
0.021807488 -0.020647038 -0.06316715 0.1060081 0.034106754 -0.07430754 -0.03393072 -0.1455909

net.6.weight f4 [11, 128]
00000000: 2699 3fbf e870 973c 77c8 983d 6707 4bbe
00000010: f89e 253c 32fe 10bf 6a09 26bd eb3b c4be
00000020: 82a6 443c 3ec4 8ebe 9ac8 9dbd 12ae 8fbe
00000030: be60 3abc ff7c c8bc 785d 993a 2903 963d
00000040: f7da a6bb eb67 08bd 6c4d 90be 218e a03d
00000050: 1c16 01bd bf60 9abe 86af 81be 96e2 9b3f
00000060: 972a 7abd 1ee1 5f3d 4085 77bb 4702 f63c
00000070: e825 8dbe fb3b 80bf 3a75 dbbd f128 9fbf
00000080: 9ba7 eabc ad82 15bc 4ad6 183d 40bc 9ebe
00000090: dd02 11bf 48fb 333d 44a8 adbb cc57 693c
000000a0: acb3 d33d f85f 2d3d 38d6 67bc 4a5d 87bd
000000b0: fe08 803d 6f68 243f 5aba c3bd 65b0 25bc
000000c0: 0ff7 33bc 447c 88be f3d7 93be bdca 95be
000000d0: da73 acbd efb7 4dbe e10e 4a3d 4cd3 acbe
000000e0: bc2c 683c da87 933d 4ee2 9bbc 4b66 b9bf
000000f0: ef7b 5b3d 098d 92be fff0 d33c cc2d 87be
00000100: da63 51be e98b 2dbd 0046 d3bc 1f31 37bd
00000110: 3ece 6139 a68b a7bd ca25 afbe 83e6 9e3f
00000120: a18d 8c3f 329f 8fbe e01d 713d e4dd 20bc
00000130: e3c5 75be 23b5 f03c f41f c53c e080 9d3c
00000140: 5989 61be e013 e33c a2e8 75bd ecf1 e73c
00000150: df86 90be 1272 0cbc 1c43 903f 2bde 3abe
00000160: 30f3 93bd aedd 573d b42e 4fbf a4dd 82be
00000170: 7ded b03b cb90 11be 1e52 623d 350b 083d
00000180: 225f 58be 9fb5 14be 208b 253c 167a 84bd
00000190: 0128 903d a2a5 7b3d cdeb 91bd 7f2a a1bd
000001a0: 0784 90be 3636 a0bd f7ba 513f 1410 393f
000001b0: 5fa3 3cbd 4761 a8bc 1d9b 9abd 2d63 afbe
000001c0: e4cf 9f3d 10d7 713f 80f9 94bf e939 6abf
000001d0: 28b5 453c 53d4 a03d 4434 80bd 40cc 9a3b
000001e0: 0294 7f3e 9bb4 81bd 3585 59be 0f42 ddbe
000001f0: ebfb 393c 93df 21bd 7b96 c43b 0d82 96be
00000200: 4a0a 56bf 8ce5 ab3c 4a4a 9fbd d5cc 93be
00000210: 0847 99bd 25b1 40bf 559a 823c b51f 06bf
00000220: 9c43 193d ca9c 64be c7ea 68bc f624 8bbe
00000230: 947e 59bd 265b 99bb bafb 7c3d 95b7 393d
00000240: 5cba fcbc ba0a 623d 2ab1 10be 638f 56bd
00000250: eadc ec3c 7779 93be d44d b2be 9802 8e3f
00000260: 440a b53a 6181 9e3d 34e9 3cb7 8651 3e3d
00000270: 2105 83be 781c 6dbf 6544 3fbd 8391 6abf
00000280: ba05 513d 7806 22bc 2e71 093d 1ba0 95be
00000290: 1f4a 2dbf c4a0 22bb 0398 b5bb 10cc c93c
000002a0: a5c7 f4bc edc1 62bd 000f a23c 5519 0dbd
000002b0: 2ba9 36bd 6ab9 613f e9fd 263d de0f 7bbb
000002c0: 2604 933c 7879 5fbe 4757 9cbe 4953 96be
000002d0: 9e73 89bd 1b19 7bbe 96d2 8dbd e039 b1be
000002e0: 34a9 f63c 05ea bdbd 9813 773d 4c61 c5bf
000002f0: 8dbc 9b3d 62e2 9cbe 4787 cc3d 5fb9 91be
00000300: 08e6 89be 8993 6abb 6509 9bbd 880c c0bc
00000310: 9384 653d 9201 26bc e80a 5fbe ff4b a13f
00000320: a667 3f3f 2186 6bbe be0f c4bd 34ff 5d3d
00000330: 6b80 8fbe cfef 4abb d091 6a3c 0135 82bc
00000340: 04c4 3bbe 28bd 8dbd a21d 2a3d 85fd 8bbc
00000350: 4c60 9fbe 6378 4d3d f155 9c3f e797 56be
00000360: 6873 07bc f594 a03d dc6c ecbe 48ac 4bbe
00000370: e6be 893d 2dea 76be 9c16 19bd 95b3 49bc
00000380: 9a00 69be c771 a8be 5e95 7a3d d5d3 2fbd
00000390: a54b 95bd c922 2ebd fd89 b0bd ff64 223d
000003a0: 5932 74be 9c2d 97bd 496e 993f f4c5 3c3f
000003b0: 5250 383d 9c48 3b3d 8420 e43c 627c 63be
000003c0: 06fd 96bd 46d6 633f 97fe 53bf cdcd 93bf
000003d0: 9042 923d c84c d7bc 66f9 133d bd57 06bb
000003e0: 2da0 e63e f0f0 a53b 0e4e 36be 5536 27bf
000003f0: 055f 3ebd 2ef8 7dbd c60c 3f3b bac0 5abe
-0.7484306 0.018486455 0.07460111 -0.19827043 0.010108702 -0.5663787 -0.04053632 -0.38326964
0.012002589 -0.27884096 -0.07704277 -0.28062493 -0.011375604 -0.024473665 0.001170083 0.073248215
-0.0050920206 -0.03330223 -0.28184068 0.07839609 -0.031515226 -0.30151936 -0.25329226 1.2178524
-0.061075773 0.054658048 -0.0037768632 0.030030383 -0.27567983 -1.0018305 -0.107157186 -1.2434369
-0.028644374 -0.009125394 0.037313737 -0.31002998 -0.56644994 0.043940812 -0.0052996 0.014242124
0.10337004 0.04232785 -0.014150195 -0.0660959 0.06251715 0.64221853 -0.09557028 -0.0101128565
-0.010984196 -0.26657307 -0.28875694 -0.2925624 -0.084205344 -0.20089696 0.049330596 -0.33754957
0.014170822 0.07203646 -0.019028809 -1.4484342 0.05358499 -0.28623226 0.025871752 -0.26402128
-0.20448247 -0.042369757 -0.025790215 -0.04472458 0.00021534503 -0.08180933 -0.34208518 1.2414097
1.0980722 -0.28051144 0.05886638 -0.009818528 -0.24001269 0.029383248 0.024063088 0.019226491
-0.2202505 0.027719438 -0.06003631 0.0283136 -0.28227898 -0.008572118 1.127048 -0.18248813
-0.07224119 0.052701645 -0.8093064 -0.25559723 0.0053994046 -0.1421539 0.055254094 0.033213813
-0.2113004 -0.14522408 0.010103971 -0.064685985 0.0703888 0.061437257 -0.071250536 -0.078694336
-0.2822573 -0.0782284 0.8192591 0.7229016 -0.04605424 -0.020554198 -0.07549117 -0.34255353
0.07803324 0.94468784 -1.1638641 -0.91494614 0.012067117 0.07852998 -0.06259969 0.0047240555
0.24958804 -0.06333276 -0.2124222 -0.4321446 0.011351566 -0.039519858 0.005999384 -0.29396096
-0.8360945 0.02098348 -0.077778414 -0.28867212 -0.07484251 -0.752703 0.015942732 -0.5239213
0.037417993 -0.22325435 -0.0142161315 -0.27176636 -0.05309923 -0.004680055 0.061763503 0.045341093
-0.030850582 0.05518601 -0.14130083 -0.052382838 0.028913934 -0.28803608 -0.34825003 1.1094542
0.0013812263 0.07739521 -1.125997e-05 0.046464466 -0.2558985 -0.92621565 -0.046696085 -0.91628283
0.051030852 -0.009889238 0.033555202 -0.29223713 -0.67691225 -0.0024815062 -0.005541803 0.024633437
-0.029880354 -0.055360723 0.019782543 -0.034447987 -0.044594925 0.88173544 0.04076949 -0.0038309018
0.017946314 -0.2182368 -0.30535337 -0.29360417 -0.06711505 -0.24521296 -0.06924932 -0.34614468
0.03010998 -0.09273151 0.06032142 -1.5420318 0.076043226 -0.30641466 0.099867396 -0.2846174
-0.26933312 -0.0035793504 -0.07570151 -0.023443475 0.056034636 -0.01013221 -0.21781504 1.2601317
0.7476753 -0.23000385 -0.09573315 0.05419846 -0.28027663 -0.003096569 0.014316991 -0.015894415
-0.18336493 -0.06920844 0.041532166 -0.017088661 -0.31128156 0.050163638 1.2213727 -0.20956384
-0.008267261 0.07840911 -0.46176803 -0.19889939 0.06725864 -0.24112768 -0.037375078 -0.012310882
-0.22754136 -0.32899305 0.061177604 -0.04292663 -0.07289819 -0.042513642 -0.08620069 0.0396471
-0.23847331 -0.07381746 1.1986781 0.7373955 0.044998474 0.045723543 0.027847536 -0.22215417
-0.07372479 0.8899883 -0.8281035 -1.154718 0.07141602 -0.02628173 0.036126517 -0.0020499073
0.4504408 0.0050641224 -0.17803213 -0.6531728 -0.046477336 -0.06200426 0.00291519 -0.21362582

net.6.bias f4 [11]
00000000: c879 8dbd 5480 69be 23aa efbd 6e92 3fbd
00000010: 5ce2 96bd 0e71 bbbd 7184 4dbd 5f79 cabd
00000020: fd1a 43bd 73f4 3b3e 1608 913d
-0.069079936 -0.2280286 -0.11702373 -0.046770506 -0.073673934 -0.09152423 -0.050175134 -0.09886431
-0.04763316 0.18354969 0.070816204
