rlhw/ddqn_model_best.pt (torch, 412349 bytes, 8 tensors)

net.0.weight f4 [256, 6]
0.34466678 0.4464295 -0.18840598 1.6777267 0.29294014 0.012328638 -0.45582765 0.11652068
0.19730817 -9.223044 0.2839427 0.011977209 0.25801498 -0.059181985 0.08197514 -8.470023
0.029603202 0.0055636824 -0.1905866 0.10406178 -0.18809494 -0.047876447 -0.16581345 0.27082008
-0.32225904 -0.18820669 -0.11527902 -0.24546847 0.03853175 -0.40321833 0.3046724 -0.49822858
0.24850793 -0.6062762 -0.42618245 0.20388632 -0.05082528 0.29816198 -0.058315944 2.7491882
0.06530195 -0.1340589 0.11250492 0.2873823 0.1353377 1.664971 0.14796613 -0.015395812
0.20732278 -0.24882941 -0.40412846 -0.15773103 -0.31313577 0.3349836 -0.08406238 0.12525824
0.006274506 3.14025 0.6985125 -0.3486322 -0.1441155 -0.47749987 0.1798278 0.36297956
-0.019097654 -2.9001763e-05 0.33859783 -0.24196956 -0.24347848 -0.24349317 0.36719602 0.13604921
0.39283723 -0.33691764 -0.40493175 -0.3193987 -0.27462417 0.16535693 0.14618385 0.3392235
-0.21082978 -0.27830768 0.21660763 -0.1650158 0.096460946 -0.25245816 0.13073556 -11.259272
-0.52342886 -0.01824847 0.070153184 -0.22489332 0.19861233 -1.9470178 -0.45540696 -0.32020766
0.37381744 -0.13775626 -0.14473072 -0.39501888 -0.23379165 0.10198194 -0.053885996 -0.29634172
0.009576142 -0.2788669 -0.3463565 -0.22480708 -0.5533982 -0.41813108 0.3349811 -1.5641345
-0.015575505 -0.5353562 -0.24797614 -0.141115 0.12297584 1.812219 -0.03298968 -0.354748
0.0011313558 -0.15191051 -0.028289884 -0.2766412 -0.28021967 -0.2381728 -0.16590533 -0.42762405
0.31245196 -2.6169007 0.39915282 0.08406149 -0.34570342 0.2825222 -0.1123274 -0.1564922
-0.33887488 -0.4058644 0.21600156 -0.01980529 0.12619625 -1.0669168 0.3691993 -0.4126672
-0.21968369 -0.014960247 0.10545402 -8.51264 0.43191454 -0.21731655 0.10274273 -0.17559819
-0.044737816 -0.30556983 0.3718565 -0.29963404 0.089447625 -0.026871838 -0.021324417 0.41041973
0.24164183 -0.038095362 0.0083073275 -0.4709143 0.19114037 -2.8413904 -0.48421052 0.36646855
0.09101847 -0.22587416 -0.20663036 -0.019496202 0.22795004 -0.10432124 -0.23293623 -0.13980171
-0.30499202 0.1455946 0.31600058 -0.38434142 -0.017011251 0.14878334 -0.06555988 2.3818243
0.019815046 0.2361909 0.15265518 -0.071737975 -0.108104676 0.043674767 -0.07211873 -0.121658415
0.24955547 0.45060477 -0.13756846 1.7300694 0.2838982 -0.0007138754 0.09814751 0.11440492
-0.3707943 -0.15065902 0.34379792 0.15903515 -0.020305276 -0.24613525 -0.24976839 -0.3656953
-0.1330736 0.13786715 0.26030797 0.18848717 -0.36086866 -0.24550521 -0.06442839 0.3949188
0.050873514 -0.1933676 0.13705681 -4.376322 -0.5327231 0.25693548 -0.18563123 -0.08184022
-0.40612715 0.2732286 0.30930305 0.14878535 -0.28466102 -0.40291655 -0.33157068 0.30443084
0.19600236 0.34354275 0.25831452 0.1358167 -0.026259067 1.3348777 -0.3649086 -0.67367834
0.16712135 -0.20043685 -0.08216104 -0.23494905 -0.07439247 -0.2873394 -0.26675585 0.13542038
-0.12132993 0.2520293 -0.13096964 -0.29947758 -0.0720309 -0.19789732 -0.12490013 -0.3886506
00000000: 2a78 b03e 6892 e43e 7fed 40be c0bf d63f
00000010: 40fc 953e 0efe 493c 3e62 e9be 65a2 ee3d
00000020: 270b 4a3e 9791 13c1 f060 913e 0e3c 443c
00000030: 8a1a 843e cf68 72bd 95e2 a73d 3785 07c1
00000040: 6a82 f23c 8d4f b63b 2229 43be 581e d53d
00000050: f69b 40be 181a 44bd 00cb 29be eea8 8a3e
00000060: 23ff a4be 41b9 40be 6817 ecbd 165c 7bbe
00000070: 78d3 1d3d a272 cebe 05fe 9b3e d117 ffbe
00000080: dd78 7e3e eb34 1bbf 9634 dabe 93c7 503e
00000090: 2b2e 50bd b0a8 983e b3dc 6ebd b3f2 2f40
000000a0: 07bd 853d bc46 09be fb68 e63d c623 933e
000000b0: f795 0a3e c51d d53f 6f84 173e b73e 7cbc
000000c0: 6c4c 543e 23cd 7ebe ede9 cebe 3e84 21be
000000d0: 5553 a0be f882 ab3e e628 acbd b243 003e
000000e0: 5f9a cd3b dbf9 4840 b7d1 323f eb7f b2be
000000f0: 0393 13be dd7a f4be c724 383e 75d8 b93e
00000100: af72 9cbc d048 f3b7 b25c ad3e dec6 77be
00000110: 6c52 79be 4656 79be 1e01 bc3e 7c50 0b3e
00000120: f621 c93e 7880 acbe 3753 cfbe 3a88 a3be
00000130: 8a9b 8cbe 5453 293e 38b1 153e b4ae ad3e
00000140: c3e3 57be 587e 8ebe 64ce 5d3e e7f9 28be
00000150: 518d c53d 3242 81be 8bdf 053e fa25 34c1
00000160: 6fff 05bf d17d 95bc 79ac 8f3d 6f4a 66be
00000170: 0861 4b3e e137 f9bf 1a2b e9be 42f2 a3be
00000180: 0065 bf3e fa0f 0dbe 4a34 14be ea3f cabe
00000190: 1467 6fbe e8db d03d 90b7 5cbd 1aba 97be
000001a0: 40e5 1c3c a4c7 8ebe a455 b1be d433 66be
000001b0: 81ab 0dbf 4715 d6be a582 ab3e 8f35 c8bf
000001c0: 6730 7fbc 1b0d 09bf 75ed 7dbe 7380 10be
000001d0: c2da fb3d cbf6 e73f 3020 07bd 88a1 b5be
000001e0: 004a 943a 6e8e 1bbe 30c0 e7bc eaa3 8dbe
000001f0: f478 8fbe 92e3 73be 16e3 29be 8af1 dabe
00000200: b4f9 9f3e 4d7b 27c0 c25d cc3e 6e28 ac3d
00000210: 0a00 b1be c0a6 903e e80b e6bd 7e3f 20be
00000220: 0281 adbe 75cd cfbe 832f 5d3e b43e a2bc
00000230: 9739 013e bb90 88bf b107 bd3e 1e49 d3be
00000240: c3f4 60be d31b 75bc 47f8 d73d c633 08c1
00000250: e723 dd3e 3b88 5ebe c86a d23d 03d0 33be
00000260: 003f 37bd a673 9cbe fa63 be3e a269 99be
00000270: 5130 b73d 5422 dcbc 8bb0 aebc 8922 d23e
00000280: f570 773e e209 1cbd 751b 083c ae1b f1be
00000290: 4dba 433e 57d9 35c0 71ea f7be c4a1 bb3e
000002a0: e467 ba3d 8e4b 67be e996 53be 80b6 9fbc
000002b0: bc6b 693e 60a6 d5bd d686 6ebe 2e28 0fbe
000002c0: ea27 9cbe c016 153e d4ca a13e 66c8 c4be
000002d0: 2e5b 8bbc a95a 183e 4244 86bd cf6f 1840
000002e0: 2a53 a23c 07dc 713e a451 1c3e 5ceb 92bd
000002f0: fc65 ddbd 50e4 323d fcb2 93bd 0c28 f9bd
00000300: 788b 7f3e abb5 e63e bfde 0cbe ea72 dd3f
00000310: 1b5b 913e 5e23 3bba 9001 c93d 204d ea3d
00000320: c0d8 bdbe 5c46 1abe 4806 b03e 1cda 223e
00000330: 4057 a6bc e10a 7cbe 49c3 7fbe 6a3c bbbe
00000340: 7244 08be 0c2d 0d3e 1647 853e c802 413e
00000350: c7c3 b8be b865 7bbe 08f3 83bd cc32 ca3e
00000360: bf60 503d 2802 46be 9f58 0c3e d40a 8cc0
00000370: 8b60 08bf 0c8d 833e 1d16 3ebe d89b a7bd
00000380: e6ef cfbe 9ee4 8b3e f85c 9e3e 305b 183e
00000390: 17bf 91be 144b cebe a2c3 a9be 5cde 9b3e
000003a0: d8b4 483e d6e4 af3e cd41 843e 8813 0b3e
000003b0: 411d d7bc 46dd aa3f 4dd5 babe 2f76 2cbf
000003c0: dc21 2b3e 513f 4dbe 0c44 a8bd 7c96 70be
000003d0: 145b 98bd 261e 93be 3994 88be a4ab 0a3e
000003e0: d47b f8bd fc09 813e e81c 06be 2055 99be
000003f0: f084 93bd 98a5 4abe a4cb ffbd 36fd c6be

net.0.bias f4 [256]
0.21773702 -0.46962205 -0.4655041 -0.13127103 -0.14556035 0.34506246 0.18942836 0.4179609
0.11193985 0.004748966 0.0987514 0.07006869 -0.3203816 -0.24141908 -0.25085783 -0.24497285
0.15379304 0.15719533 0.16984801 0.0902279 -0.13933238 -0.5746733 -0.29900542 -0.4549442
0.00022118044 0.2205652 0.31107175 -0.2907658 -0.032203823 -0.121234834 -0.0597111 0.13104826
0.10862624 0.018899769 0.051719815 0.15203911 -0.34742194 -0.2434375 0.0963158 0.018336987
-0.1849479 0.17144918 0.003702432 -0.3471896 -0.2265113 -0.32807606 -0.5704358 0.09287256
0.1069136 0.24773997 0.02636078 0.032640368 -0.06514202 0.31065148 -0.19292086 0.24372631
0.09984183 -0.2723493 0.13170809 -0.48478854 -0.12850875 -0.19459924 -0.2777371 0.24422759
-0.36490086 0.07967243 -0.58789736 -0.049686283 0.024348825 0.290228 -0.14774242 0.11750507
0.06324008 0.39951432 0.024271011 0.15286636 -0.49190423 -0.6610757 0.33680585 -0.29747707
-0.06950006 -0.34671673 0.49253178 -0.08822799 -0.3108012 -0.18947676 0.050382733 0.027438842
0.34558195 -0.08357534 0.19230354 -0.79888517 0.3427717 0.12689714 0.26335567 -0.23410681
-0.10899347 0.09235666 -0.5626339 -0.32475376 -0.39275235 -0.14441106 0.24356838 0.24860573
0.024888843 -0.04210336 -0.25654495 0.043039978 -0.43336675 -0.19458085 0.35206234 -0.5914104
0.059828073 -0.604183 -0.01385054 -0.22536333 0.38875246 -0.45812744 0.26129508 -0.5509663
0.21055569 -0.30666775 0.13789965 -0.42653966 -0.31193554 -0.07450673 0.26496542 0.13379425
-0.5706413 0.037534565 -0.31602147 0.5062314 -0.11261846 -0.03201136 -0.2082758 0.14491922
-0.17477414 0.19361675 0.19304077 0.2505842 0.106649935 -0.57165956 0.29365999 -0.09835825
-0.5035593 -0.23629978 0.26414302 0.24583575 0.06303844 0.38906312 -0.69826806 0.00096437335
-0.7884576 0.13894713 -0.29085627 -0.14550161 0.337675 0.39016122 -0.24510428 -0.22658226
0.050559938 0.33125493 -0.25510743 -0.17743951 -0.2681553 0.32408658 0.5809328 -0.19762447
0.14096285 0.1993863 0.32814878 -0.14981757 0.012858927 0.29993957 0.2096589 0.40322977
-0.11699176 0.18945353 0.249663 -0.27712548 0.08110213 -0.26085988 0.20846249 -0.18335542
-0.048318572 0.24425936 -0.6137801 -0.6339187 -0.20909826 0.44373336 0.43493006 -0.50340104
0.07784778 -0.32827705 -0.18948954 0.47426885 -0.11529506 -0.11164895 0.044232085 0.07910094
0.0956285 -0.34588438 -0.24041152 0.27028644 -0.22949174 0.33925873 -0.46468475 -0.004238761
0.29710913 0.39264274 0.09529042 0.5333131 -0.0008928478 0.08691487 0.36467782 0.33915007
-0.17237064 0.36775142 0.1772362 -0.045698345 0.44262153 -0.21148455 0.2497292 0.59697443
-0.28156972 -0.41159704 -0.5490281 -0.32636166 -0.341679 -0.4752714 -0.07905682 0.2885816
0.15114748 0.22661084 0.16936743 -0.25615913 -0.32414708 -0.35384 0.24162596 -0.1309338
-0.035113394 -0.2770934 -0.32640576 -0.31470376 0.20943898 0.11220162 -0.49248043 0.04379469
0.029625833 -0.050438523 0.2673054 0.20210004 -0.38243112 -0.5882153 -0.019612223 -0.3785024
00000000: 74f6 5e3e 4d72 f0be 8e56 eebe ea6b 06be
00000010: c60d 15be 07ac b03e 82f9 413e f9fe d53e
00000020: b840 e53d 379d 9b3b 2d3e ca3d 2c80 8f3d
00000030: 0f09 a4be 9036 77be 7070 80be 2ada 7abe
00000040: ec7b 1d3e d0f7 203e a3ec 2d3e 68c9 b83d
00000050: 26ad 0ebe ca1d 13bf 3d17 99be 72ee e8be
00000060: acec 6739 d8db 613e cc44 9f3e 41df 94be
00000070: 28e8 03bd f849 f8bd a093 74bd 8431 063e
00000080: 6f77 de3d b0d3 9a3c 28d8 533d 24b0 1b3e
00000090: 4ae1 b1be ae47 79be 3841 c53d 7337 963c
000000a0: fb62 3dbe 6090 2f3e 80a4 723b d6c2 b1be
000000b0: 94f2 67be 96f9 a7be 1508 12bf f833 be3d
000000c0: 84f5 da3d 8caf 7d3e 90f2 d73c e8b1 053d
000000d0: 2e69 85bd b60d 9f3e 0c8d 45be 6493 793e
000000e0: e079 cc3d 5e71 8bbe 7cde 063e 3436 f8be
000000f0: cc97 03be 0645 47be 8f33 8ebe cc16 7a3e
00000100: 49d4 babe 4d2b a33d 7180 16bf d883 4bbd
00000110: 3077 c73c c498 943e ca49 17be 80a6 f03d
00000120: 0484 813d 248d cc3e 00d4 c63c 0089 1c3e
00000130: dfda fbbe 423c 29bf d171 ac3e ea4e 98be
00000140: 0c56 8ebd db84 b1be 202d fc3e e0b0 b4bd
00000150: 5621 9fbe 3206 42be 205e 4e3d 6cc7 e03c
00000160: 1ef0 b03e 8c29 abbd 38eb 443e bd83 4cbf
00000170: c67f af3e 53f1 013e 8ed6 863e b2b9 6fbe
00000180: f837 dfbd 7d25 bd3d c608 10bf 2046 a6be
00000190: d616 c9be 7ee0 13be fd69 793e 8092 7e3e
000001a0: b0e3 cb3c 9374 2cbd dc59 83be b04a 303d
000001b0: 3fe2 ddbe 3440 47be 8441 b43e ac66 17bf
000001c0: 480e 753d bdab 1abf 60ed 62bc a5c5 66be
000001d0: 900a c73e ae8f eabe 78c8 853e 210c 0dbf
000001e0: e99b 573e 8e03 9dbe 9135 0d3e 6863 dabe
000001f0: 04b6 9fbe fc96 98bd 8ca9 873e 5c01 093e
00000200: 8c15 12bf d8bd 193d 91cd a1be 6298 013f
00000210: 82a4 e6bd 581e 03bd 4046 55be b465 143e
00000220: fef7 32be 7843 463e 7bac 453e 924c 803e
00000230: 486b da3d 4858 12bf 9a5a 963e 0d70 c9bd
00000240: 43e9 00bf 92f8 71be c13d 873e 5ebc 7b3e
00000250: 4c1a 813d 4833 c73e b2c1 32bf 00ce 7c3a
00000260: 5bd8 49bf 2848 0e3e 1deb 94be 60fe 14be
00000270: bde3 ac3e 36c3 c73e 9efc 7abe 2e05 68be
00000280: f017 4f3d 3f9a a93e 719d 82be b4b2 35be
00000290: a74b 89be adee a53e 03b8 143f 125e 4abe
000002a0: 9158 103e ec2b 4c3e 1e03 a83e c769 19be
000002b0: 40ae 523c ae91 993e d3b0 563e 2274 ce3e
000002c0: 6099 efbd 1b00 423e a8a7 7f3e 64e3 8dbe
000002d0: e018 a63d 6d8f 85be 3177 553e 86c1 3bbe
000002e0: b2e9 45bd 201f 7a3e b120 1dbf 7f48 22bf
000002f0: db1d 56be 0531 e33e 27af de3e e4de 00bf
00000300: a86e 9f3d ee13 a8be 8c09 42be 5ed3 f23e
00000310: d11f ecbd 34a8 e4bd b42c 353d acff a13d
00000320: e0d8 c33d c217 b1be 702e 76be fc62 8a3e
00000330: e2ff 6abe 52b3 ad3e 29eb edbe 4ee5 8abb
00000340: b01e 983e 7808 c93e a027 c33d 3587 083f
00000350: 000e 6aba 6c00 b23d 0db7 ba3e 14a5 ad3e
00000360: ee81 30be ea49 bc3e 687d 353e 302e 3bbd
00000370: 4a9f e23e 688f 58be 03b9 7f3e 51d3 183f
00000380: e829 90be d9bc d2be 1b8d 0cbf e018 a7be
00000390: 8df0 aebe c656 f3be 8be8 a1bd f8c0 933e
000003a0: 68c6 1a3e ac0c 683e a86e 2d3e 4a27 83be
000003b0: 9bf6 a5be 842a b5be cc6c 773e 8313 06be
000003c0: 10d3 0fbd 30df 8dbe a81e a7be da20 a1be
000003d0: 2c77 563e f7c9 e53d 6526 fcbe 1062 333d
000003e0: e0b1 f23c a098 4ebd 41dc 883e 50f3 4e3e
000003f0: 03ce c3be 4795 16bf d0a9 a0bc 11cb c1be

net.2.weight f4 [256, 256]
0.023099693 0.11585286 0.123798326 -0.030899398 -0.021438554 -0.007603526 0.02042681 0.0017623345
-0.035139874 -0.06832073 0.01279094 -0.008639462 -0.0065660775 -0.016289577 0.100867696 0.1317896
0.048085652 -0.03622376 0.038736638 -0.13420513 -0.029306069 0.16052671 0.0006553158 0.13878481
0.008115717 -0.03406526 -0.03464593 0.15701434 -0.048061684 0.032799646 -0.13346353 0.018444203
-0.07566976 -0.016351432 0.038672723 -0.04979516 0.058819797 0.045752585 0.018548734 -0.008297502
-0.014595665 -0.03816341 0.038005732 0.06966084 -0.38590863 0.14796686 0.1443649 -0.03188646
-0.0019226703 0.04235194 0.03529828 -0.030746028 -0.03762035 0.011594459 0.032868378 0.014928572
0.044332147 -0.04959213 -0.0038650203 0.022428738 0.03517542 0.046482146 0.019794755 0.09375643
-0.041196972 -0.0192649 0.028109409 0.039239466 0.021894373 -0.045766674 0.030267552 0.057025768
-0.061630227 0.0835745 0.009585805 0.0058138072 -0.9462725 -0.06893211 0.049520086 0.04938343
0.026001528 0.056722797 -0.080104336 0.01167392 -0.044465393 0.16263668 0.0683017 0.017698772
-0.04425392 -0.037887327 0.046196103 0.15181153 0.5836456 -0.0035910748 -0.010762267 -0.016017355
0.042980835 -0.04297384 0.17836575 0.04309336 -0.05715975 0.08365774 -0.028894521 -0.0030265532
0.026982345 0.110808335 0.05471926 -0.039118998 0.11515533 -0.21889296 -0.031326354 0.11622118
0.049380824 0.13730593 -0.05131784 -0.0021965809 -0.08997235 -1.674129 -0.05206708 0.13474584
0.043550905 -0.05734601 -0.06191451 0.10447534 0.08402432 -0.0114303455 0.054575756 -0.037630558
0.019201433 -0.046717256 -0.027936999 -0.0025989464 0.18768759 0.0035446275 0.019959599 -0.045794073
-0.12745829 0.052688673 -0.008784014 -0.016062476 -0.053031087 0.14090712 -0.0546052 0.009019072
0.13706793 -0.040954966 0.07060812 0.01970136 0.04997717 -0.088162236 0.10836774 0.0075408593
0.081996694 0.042658262 -0.05940795 -0.050340705 0.028792238 -0.037531033 -0.04505048 -0.0030559152
-0.020006403 -0.0585269 0.0050463625 0.03182703 -0.0537801 -0.0675645 -0.03714187 0.012008503
0.10230325 0.009141505 -0.018309407 0.007817541 -0.026355833 -0.042220533 -0.012279557 0.061785035
-0.010459781 -0.5807188 0.06443652 -0.0048823655 -0.033623382 -0.8714651 -0.007895587 0.022308528
1.0899055 -0.0076310486 0.097776696 0.13607103 0.018808156 -0.034909867 0.04673749 0.16374211
0.021144606 -0.06759656 -0.050118677 0.0056348466 0.027322693 0.004589826 -0.006873764 0.025268033
0.04153438 0.04270395 -0.05930379 -0.032066226 0.084838316 0.031732433 -0.5384922 0.05905159
-0.0132461935 -0.04521893 0.028330304 -0.10785375 -0.0032332614 -0.043942794 0.008954199 0.035725024
-0.0025433004 -0.02335298 0.028101355 -0.016193599 -0.07539288 -0.046089537 -0.013239346 -0.099055536
0.051876247 0.08426593 0.057115402 0.09579885 -0.105733685 0.03350486 0.12213779 -0.036434352
0.05626802 -0.00014095753 -0.050841942 -0.025688788 0.015905447 0.11302478 0.07694906 0.06213918
-0.034088925 -0.026689343 -0.013145215 -0.044776283 0.01537988 -0.10219402 0.13616754 0.04422246
0.0049485266 -0.04474254 -0.036743425 -0.01045337 -0.6222328 0.10284024 0.011363871 0.05890508
00000000: 913b bd3c 4444 ed3d fa89 fd3d bc20 fdbc
00000010: e89f afbc 0027 f9bb 2056 a73c 22fe e63a
00000020: d4ee 0fbd bdeb 8bbd 1791 513c 888c 0dbc
00000030: 4028 d7bb b871 85bc b993 ce3d daf3 063e
00000040: 76f5 443d 5e5f 14bd 4faa 1e3d 126d 09be
00000050: 4813 f0bc 1d61 243e 80c9 2b3a 9b1d 0e3e
00000060: c9f7 043c 0488 0bbd e4e8 0dbd 5ec8 203e
00000070: 54dc 44bd ec58 063d aaaa 08be 4c18 973c
00000080: bff8 9abd 70f3 85bc 4a67 1e3d 02f6 4bbd
00000090: 07ed 703d 1067 3b3d 84f3 973c 3ff2 07bc
000000a0: a822 6fbc 3c51 1cbd e6ab 1b3d 58aa 8e3d
000000b0: d195 c5be a084 173e 64d4 133e 609b 02bd
000000c0: 1c02 fcba 3a79 2d3d ee94 103d 18df fbbc
000000d0: cc17 1abd b0f6 3d3c fea0 063d f896 743c
000000e0: a095 353d 1e21 4bbd 484c 7dbb 79bc b73c
000000f0: 1a14 103d 1064 3e3d 9c28 a23c 5f03 c03d
00000100: 28be 28bd 6cd1 9dbc b445 e63c 90b9 203d
00000110: d45b b33c d675 3bbd a8f3 f73c da93 693d
00000120: fa6f 7cbd 1c29 ab3d c80d 1d3c c081 be3b
00000130: ea3e 72bf 472c 8dbd 93d5 4a3d 4846 4a3d
00000140: 2801 d53c 2a56 683d be0d a4bd f843 3f3c
00000150: 5821 36bd 3b8a 263e c3e1 8b3d 04fd 903c
00000160: 9943 35bd be2f 1bbd 2038 3d3d 7b74 1b3e
00000170: cc69 153f 3d58 6bbb 3854 30bc d436 83bc
00000180: ac0c 303d 5605 30bd 83a5 363e aa82 303d
00000190: 5820 6abd c054 ab3d 34b4 ecbc 2359 46bb
000001a0: 140a dd3c 7bef e23d 4e21 603d 3e3b 20bd
000001b0: 8fd6 eb3d 7a25 60be 1050 00bd 5f05 ee3d
000001c0: 8c43 4a3d ed99 0c3e a832 52bd 83f4 0fbb
000001d0: 6c43 b8bd dc49 d6bf 4a44 55bd d0fa 093e
000001e0: 6f62 323d a6e3 6abd 129a 7dbd 2bf7 d53d
000001f0: f114 ac3d 5846 3bbc d48a 5f3d 8022 1abd
00000200: 534c 9d3c 985a 3fbd 22dc e4bc 1653 2abb
00000210: 2d31 403e fb4c 683b 5082 a33c 9192 3bbd
00000220: 6d84 02be 14d0 573d d3ea 0fbc 7495 83bc
00000230: 2037 59bd f549 103e b4a9 5fbd bbc4 133c
00000240: 895b 0c3e 65c0 27bd fd9a 903d bf64 a13c
00000250: dcb4 4c3d 678e b4bd e8ef dd3d 5019 f73b
00000260: e2ed a73d 6eba 2e3d c055 73bd 0e32 4ebd
00000270: b3dd eb3c 24ba 19bd da86 38bd c045 48bb
00000280: 78e4 a3bc e7b9 6fbd f55b a53b 0f5d 023d
00000290: 8648 5cbd 425f 8abd 1322 18bd 50bf 443c
000002a0: 5e84 d13d 40c6 153c 9cfd 95bc 2515 003c
000002b0: 30e8 d7bc 70ef 2cbd 3230 49bc 4e12 7d3d
000002c0: 805f 2bbc fda9 14bf 4bf7 833d 40fc 9fbb
000002d0: acb8 09bd 5618 5fbf 7e5c 01bc 60c0 b63c
000002e0: 0682 8b3f e00d fabb 263f c83d 3456 0b3e
000002f0: 9013 9a3c a6fd 0ebd cf6f 3f3d 03ac 273e
00000300: 7437 ad3c 1170 8abd 3e49 4dbd 85a4 b83b
00000310: d7d3 df3c 4066 963b 503d e1bb e8fe ce3c
00000320: f41f 2a3d 56ea 2e3d 88e8 72bd e057 03bd
00000330: b6bf ad3d def9 013d a0da 09bf 14e0 713d
00000340: 9006 59bc 7c37 39bd f414 e83c 6de2 dcbd
00000350: 20e5 53bb 5cfd 33bd a2b4 123c 6754 123d
00000360: 80ad 26bb c04e bfbc d034 e63c 70a8 84bc
00000370: 9567 9abd 62c8 3cbd d8e9 58bc a1dd cabd
00000380: 307c 543d 9e93 ac3d d7f1 693d 3032 c43d
00000390: e78a d8bd 643c 093d 6123 fa3d 303c 15bd
000003a0: 4c79 663d 00ce 13b9 a43f 50bd 4b71 d2bc
000003b0: 244c 823c 8979 e73d 7897 9d3d a785 7e3d
000003c0: d4a0 0bbd 9ca3 dabc 075f 57bc 5667 37bd
000003d0: e4fb 7b3c 194b d1bd 816f 0b3e 9c22 353d
000003e0: 4027 a23b f443 37bd 4680 16bd 9d44 2bbc
000003f0: a64a 1fbf e79d d23d 882f 3a3c 7446 713d

net.2.bias f4 [256]
-0.033810057 -0.022675704 -0.033844613 0.0033918638 -0.050270002 0.06774755 0.03148667 0.045367613
-0.017873323 -0.037842024 0.034436233 0.01916521 0.07877961 0.033134423 0.079299584 -0.036426403
0.037259117 0.019474898 0.0060774987 0.0027323682 -0.008806743 0.12070005 -0.006557206 -0.06058678
-0.013837112 -0.012102355 0.007794716 -0.044248372 -0.041876677 -0.050082855 -0.043029413 -0.04878549
-0.037564114 0.014162712 0.005357203 0.023311002 -0.031131163 -0.037567884 0.018055135 -0.030886509
-0.052001778 0.009994669 0.050094616 -0.00094300637 -0.006921768 0.049214836 0.02813612 -0.0068592504
-0.042040933 0.0032390577 -0.0034637589 -0.03776828 -0.048685517 -0.030271687 -0.015638508 0.030225536
0.0012776809 0.15192969 -0.30626866 -0.020937806 0.0070818514 0.029005513 0.031751197 -0.052245714
-0.0076881936 -0.030676011 0.042488337 0.037824545 -0.026781818 -0.05680971 0.020103278 -0.016911082
-0.0053414614 -0.029690979 -0.038547397 -0.068839 0.082112275 -0.023133852 -0.011128731 0.030430973
0.014581853 -0.017978692 0.033735313 0.07199251 0.038025916 0.02510318 -0.05339606 0.0047057457
-0.14005029 0.0120737 -0.04861397 0.042901013 0.06698757 0.016960783 -0.000374717 -0.05251565
-0.041134566 0.017728092 -0.015434756 -0.056430366 -0.03813488 -0.015955495 0.016405307 0.012895763
-0.041791636 0.02967401 -0.04979197 0.0030728774 0.023200441 -0.013306665 -0.004283493 -0.020852007
-0.027132088 -0.03380709 0.0060080136 -0.03533384 -0.0330634 -0.049207956 0.13989821 -0.06934276
0.007467158 0.051745676 0.05782187 -0.046181913 0.061495636 -0.080298945 0.026050253 0.02091659
0.07059441 0.027118305 -0.069042906 -0.07295245 -0.025939977 0.0037131459 -0.005429423 0.023097042
0.042276718 -0.0026083493 0.14299744 0.09277412 -0.009990259 -0.054420944 0.0017833039 0.027075892
0.00955274 0.052412003 0.021495437 -0.047841303 0.004170917 0.036422078 -0.026117954 0.00026140694
0.0981963 -0.044496156 0.050073322 0.01098109 -0.05097644 -0.040281564 0.010185769 -0.024541277
0.046156462 -0.060272157 0.093771726 -0.039358545 -0.06063801 0.00569661 0.03139948 -0.03408498
0.005830293 0.04183911 0.05423443 0.04829379 -0.042582862 -0.07363922 0.03057291 0.035614334
-0.0042464663 -0.051221523 0.029531725 -0.000199534 0.027802411 0.06655851 0.07949547 0.04796661
-0.024515478 0.118557066 0.0024734421 0.11806738 0.024482023 0.005303867 0.034009755 -0.0011514872
0.04427185 -0.007905687 0.04365533 0.06859941 0.07435355 -0.0026757866 0.0028007857 0.012297848
-0.069318704 -0.0012326447 0.16999337 0.19727075 0.009468631 -0.00051214965 0.047844168 0.011395348
-0.006135438 0.21839723 -0.03281737 0.035065003 -0.022089973 -0.047032446 -0.02112958 0.021777358
0.06716923 0.107957266 -0.032386214 0.032340683 0.04082088 -0.03444383 -0.0055631935 -0.02947811
0.22789755 0.03359796 -0.04026676 0.02213232 -0.008413484 0.029861925 0.08856925 -0.009210097
0.10804065 0.010458954 -0.061832707 -0.09645784 0.0049224338 -0.03244711 0.004032342 -0.006704164
0.015731394 0.056371346 -0.025967129 0.026263714 0.017947275 -0.059052855 0.019111454 0.028586231
-0.0011430085 -0.02305273 0.032068808 -0.033998564 0.07822053 -0.0447076 0.01789554 0.07630399
00000000: 6a7c 0abd 66c2 b9bc a6a0 0abd 084a 5e3b
00000010: ebe7 4dbd 3abf 8a3d 2bf8 003d 64d3 393d
00000020: 136b 92bc 3d00 1bbd 020d 0d3d 5c00 9d3c
00000030: 3457 a13d f6b7 073d d267 a23d da33 15bd
00000040: 049d 183d d289 9f3c c125 c73b 8811 333b
00000050: 284a 10bc 9631 f73d d5dd d6bb d829 78bd
00000060: 0eb5 62bc f548 46bc d16a ff3b c83d 35bd
00000070: e186 2bbd ae23 4dbd 9c3f 30bd 4bd3 47bd
00000080: d4dc 19bd b80a 683c 7a8b af3b b7f6 be3c
00000090: c806 ffbc c8e0 19bd 5de8 933c b405 fdbc
000000a0: d1ff 54bd aec0 233c 0330 4d3d 1634 77ba
000000b0: 00d0 e2bb 7f95 493d b87d e63c 90c3 e0bb
000000c0: 1d33 2cbd 5f46 543b 3b00 63bb e9b2 1abd
000000d0: 776a 47bd 54fc f7bc 541c 80bc 8b9b f73c
000000e0: db77 a73a 7593 1b3e 3fcf 9cbe c385 abbc
000000f0: e00e e83b f89c ed3c 8b0d 023d 9aff 55bd
00000100: 3eed fbbb 424c fbbc 4008 2e3d e9ed 1a3d
00000110: 8b65 dbbc 4cb1 68bd a1af a43c 1c89 8abc
00000120: 6d07 afbb 7f3a f3bc e0e3 1dbd 76fb 8cbd
00000130: 7b2a a83d 3483 bdbc 4855 36bc 604a f93c
00000140: b9e8 6e3c 0d48 93bc 0a2e 0a3d cf70 933d
00000150: 10c1 1b3d 2fa5 cd3c d4b5 5abd a832 9a3b
00000160: 5869 0fbe c5d0 453c 711f 47bd f9b8 2f3d
00000170: c730 893d 57f1 8a3c aa75 c4b9 a61a 57bd
00000180: b87c 28bd 813a 913c 0fe2 7cbc 8723 67bd
00000190: 5233 1cbd 19b5 82bc 6c64 863c c048 533c
000001a0: b52d 2bbd e916 f33c aaf2 4bbd 5462 493b
000001b0: da0e be3c 3304 5abc 8b5c 8cbb d4d1 aabc
000001c0: 1d44 debc 4e79 0abd dfde c43b 37ba 10bd
000001d0: 7d6d 07bd 488e 49bd 7a41 0f3e 9403 8ebd
000001e0: 10af f43b 46f3 533d a0d6 6c3d 3f29 3dbd
000001f0: d9e2 7b3d c673 a4bd 5767 d53c 4559 ab3c
00000200: cd93 903d 3527 de3c 5e66 8dbd 1868 95bd
00000210: 1380 d4bc 4058 733b 4de9 b1bb 0236 bd3c
00000220: 5a2a 2d3d d7f0 2abb ec6d 123e 5c00 be3d
00000230: 2fae 23bc 7fe8 5ebd c0bd e93a 43ce dd3c
00000240: 1883 1c3c f8ad 563d 3317 b03c 3ef5 43bd
00000250: 30ac 883b 512f 153d 52f5 d5bc 720d 8939
00000260: 241b c93d 9a41 36bd af19 4d3d 08ea 333c
00000270: accc 50bd 48fe 24bd 36e2 263c ca0a c9bc
00000280: 8f0e 3d3d f0df 76bd 640b c03d 6d36 21bd
00000290: 905f 78bd a1aa ba3b be9c 003d b19c 0bbd
000002a0: 0b0c bf3b 7d5f 2b3d ec24 5e3d b6cf 453d
000002b0: 5e6b 2ebd 29d0 96bd 0a74 fa3c 56e0 113d
000002c0: f125 8bbb a9cd 51bd 84ec f13c 003a 51b9
000002d0: e2c1 e33c d44f 883d 85ce a23d a378 443d
000002e0: afd4 c8bc 0cce f23d 7919 223b 4fcd f13d
000002f0: 868e c83c 10cc ad3b d04d 0b3d 80ed 96ba
00000300: 6656 353d db86 01bc eecf 323d d97d 8c3d
00000310: ad46 983d 405c 2fbb 638d 373b ea7c 493c
00000320: f7f6 8dbd b190 a1ba be12 2e3e 5801 4a3e
00000330: 5122 1b3c c841 06ba 3ff8 433d 8eb3 3a3c
00000340: c90b c9bb 86a3 5f3e 826b 06bd 52a0 0f3d
00000350: 08f6 b4bc 18a5 40bd f117 adbc 6e66 b23c
00000360: 0590 893d b318 dd3d 68a7 04bd aa77 043d
00000370: cc33 273d f914 0dbd 734b b6bb 147c f1bc
00000380: fa5d 693e 049e 093d c2ee 24bd d74e b53c
00000390: b6d8 09bc ffa0 f43c cc63 b53d f2e5 16bc
000003a0: 6b44 dd3d 085c 2b3c 4b44 7dbd b08b c5bd
000003b0: 5e4c a13b 43e7 04bd bd21 843b 9bae dbbb
000003c0: 20df 803c a4e5 663d 04b9 d4bc 0027 d73c
000003d0: 2a06 933c 68e1 71bd a08f 9c3c ac2d ea3c
000003e0: 00d1 95ba 14d9 bcbc 955a 033d 1442 0bbd
000003f0: 1632 a03d 511f 37bd ab99 923c 4445 9c3d

net.4.weight f4 [128, 256]
-0.2559145 0.028878517 0.019745052 -0.03889621 0.08350015 -0.2013044 0.003066115 0.044369396
0.05252996 -0.40698162 -0.001430966 0.009085156 0.090992674 -0.06186194 -0.14540489 -0.049228005
0.007322043 -0.07067199 -0.01747667 0.07717658 0.05630949 0.16448514 0.048606604 -0.051191613
0.009940021 0.024563596 -0.023734713 -0.017545007 -0.24972759 -0.034311034 0.03400075 -0.001076892
-0.026473515 -0.008780554 -0.023877155 -0.029785536 -0.028640695 0.018079296 -0.07549437 0.019989207
-0.027600003 -0.028830923 -0.095053904 0.0017939806 0.02837732 -0.13086429 -0.04363934 0.05698295
0.0028261393 -0.0059494227 0.0465972 0.03855107 0.055723608 0.024340004 -0.028885804 0.121945076
-0.14936309 0.28316295 -0.035781186 -0.0047545135 -0.009730592 0.041996963 0.049095914 -0.045274615
0.05950526 -0.0031853148 -0.052705504 0.68630755 -0.009540455 -0.06734349 -0.0009835064 0.042501688
-0.026247405 -0.019599661 0.059597224 -0.026802853 -0.99103534 0.024808677 0.054573357 0.026996788
-0.19844338 -0.020097181 -0.10441679 -0.091089115 0.0044837445 -0.040279403 0.05690083 0.039893035
-0.16877168 0.02981051 0.096272714 -0.065425485 -0.14592585 -0.21053432 -0.062957965 -0.030628622
0.03527489 -0.06250818 0.023574546 -0.26259398 -0.01143267 -0.1991415 0.058771625 0.024636634
-0.015970834 -0.035247035 0.031426355 0.024340266 0.017078914 -0.057204783 -0.034062207 -0.033687107
0.0538932 -0.018943362 0.01910249 0.059657395 0.009160771 0.014196212 0.0183843 -0.06348757
-0.023422455 0.00028454929 0.044333376 0.04199128 0.17018034 -0.2610989 -0.16908148 0.05443774
0.07101026 -0.0027600238 -0.377686 -0.82957405 -0.021496758 -0.044058524 0.043478653 0.0025325466
-0.0077897473 -0.04641537 0.4111139 0.13934834 -0.13089274 -0.024705468 0.017742641 0.027146107
0.05892703 0.23151149 0.057312533 -0.02473569 0.05413463 -0.018559864 0.011094296 -0.554219
0.15639554 0.021299511 -0.035913818 0.00094828755 -0.04555192 0.033736408 -0.038184475 -0.027695693
0.011463277 -0.04010214 0.0016925818 0.059274632 -0.04886081 -0.11592667 0.022493355 -0.006759311
-0.18108435 0.04819693 -0.20564242 -0.04573319 0.037792288 -1.0781789 0.054308333 -0.03573936
-0.19880313 -0.022983767 -0.062368892 -0.0015389398 0.060866684 0.09197625 0.14948417 -0.009438462
0.017965682 -0.12628734 -0.03502351 0.06685199 0.04924933 0.008623667 -0.026855348 -0.03394486
-0.008780137 -0.075901546 0.046174586 0.22720346 -0.04047298 -0.0010376424 0.0447607 -0.033820346
-0.006879038 0.0057977512 0.031732336 -0.13671641 0.017614886 0.41875225 0.26389363 0.011222134
0.024924615 0.16795231 0.061812826 -0.17235063 -0.019487642 0.02565898 -0.1402462 0.011720665
-0.2681718 0.09537735 -0.060810357 -0.035911746 -0.13779536 0.05404467 -0.053334326 -0.02417478
0.18720792 -0.04903374 0.0019330531 -0.037560135 0.07198814 -0.21273945 0.11410307 -0.031203791
0.084553465 0.00810267 0.048955016 -0.86268824 0.039008576 -0.0010090992 0.062229007 -0.07761737
-0.025625087 0.04243633 0.06617325 0.069208 -0.067215174 -0.047403798 0.0016868487 0.007551387
0.0050420016 0.034110457 -0.0129752755 0.061352752 1.6966212 0.007197905 -0.0018341956 0.12949249
00000000: 3a07 83be a492 ec3c 60c0 a13c a251 1fbd
00000010: 2002 ab3d be22 4ebe e0f0 483b afbc 353d
00000020: a829 573d e55f d0be 408f bbba e8d9 143c
00000030: 5e5a ba3d f262 7dbd 05e5 14be 4ea3 49bd
00000040: c0ed ef3b 7abc 90bd 3c2b 8fbc c10e 9e3d
00000050: c8a4 663d cb6e 283e b817 473d 4cae 51bd
00000060: 78db 223c 9839 c93c 4d6f c2bc 8cba 8fbc
00000070: 97b8 7fbe ba89 0cbd 5f44 0b3d 8026 8dba
00000080: fcde d8bc 50dc 0fbc 069a c3bc cc00 f4bc
00000090: e49f eabc 081b 943c cb9c 9abd 68c0 a33c
000000a0: 6719 e2bc d42e ecbc 9fab c2bd 0024 eb3a
000000b0: 8e77 e83c 4a01 06be 2abf 32bd f466 693d
000000c0: c036 393b 60f3 c2bb b5dc 3e3d bae7 1d3d
000000d0: 703e 643d b064 c73c eca1 ecbc 57be f93d
000000e0: a3f2 18be bcfa 903e 4b8f 12bd c0cb 9bbb
000000f0: 106d 1fbc 0205 2c3d cc18 493d e071 39bd
00000100: cabb 733d b7c0 50bb bae1 57bd dab1 2f3f
00000110: 924f 1cbc 62eb 89bd 00e9 80ba 4016 2e3d
00000120: cc04 d7bc 788f a0bc 381c 743d a891 dbbc
00000130: 7eb4 7dbf 913b cb3c 5088 5f3d 5e28 dd3c
00000140: be34 4bbe d8a2 a4bc 78d8 d5bd ee8c babd
00000150: 60ec 923b 04fc 24bd d810 693d e166 233d
00000160: 7cd2 2cbe 2c35 f43c a12a c53d ccfd 85bd
00000170: 966d 15be 4f96 57be 1bf0 80bd e0e8 fabc
00000180: 677c 103d 4a04 80bd 681f c13c b872 86be
00000190: 1850 3bbc c0eb 4bbe 84ba 703d c4d2 c93c
000001a0: 44d5 82bc 325f 10bd ecb8 003d 3d65 c73c
000001b0: 14e9 8b3c 904f 6abd d084 0bbd 7efb 09bd
000001c0: 1ebf 5c3d 1c2f 9bbc d37c 9c3c 505b 743d
000001d0: 0f17 163c 3b97 683c ac9a 963c c505 82bd
000001e0: 73e0 bfbc 8f2f 9539 ea96 353d 0cff 2b3d
000001f0: c143 2e3e c1ae 85be b223 2dbe 1cfa 5e3d
00000200: d46d 913d 84e1 34bb 0f60 c1be f75e 54bf
00000210: f819 b0bc b676 34bd ac16 323d 15f9 253b
00000220: 2341 ffbb 0b1e 3ebd 857d d23e 55b1 0e3e
00000230: bf08 06be 1f63 cabc 0459 913c 8361 de3c
00000240: 785d 713d 5911 6d3e 8cc0 6a3d 80a2 cabc
00000250: 46bc 5d3d db0a 98bc dac4 353c 4ce1 0dbf
00000260: 2726 203e 507c ae3c 5e1a 13bd 8096 783a
00000270: a694 3abd 302f 0a3d 5367 1cbd 14e2 e2bc
00000280: 78d0 3b3c 2442 24bd 9fd9 dd3a f5c9 723d
00000290: 4622 48bd f66a edbd fc43 b83c 367d ddbb
000002a0: 2d6e 39be 256a 453d ed93 52be ba52 3bbd
000002b0: 16cc 1a3d c401 8abf 6a72 5e3d 6f63 12bd
000002c0: 0c93 4bbe 7448 bcbc 8676 7fbd 40b6 c9ba
000002d0: 584f 793d 0b5e bc3d 6112 193e c7a3 1abc
000002e0: c42c 933c 7851 01be d074 0fbd b2e9 883d
000002f0: aab9 493d 484a 0d3c bfff dbbc c409 0bbd
00000300: 90da 0fbc 4572 9bbd 9021 3d3d 06a8 683e
00000310: ffc6 25bd 8001 88ba ff56 373d 3487 0abd
00000320: 8e69 e1bb 10fb bd3b c4f9 013d 63ff 0bbe
00000330: 184d 903c b266 d63e 111d 873e 0bdd 373c
00000340: b52e cc3c b1fb 2b3e 722f 7d3d af7c 30be
00000350: 8ca4 9fbc c832 d23c b39c 0fbe 0808 403c
00000360: d04d 89be 3355 c33d 4814 79bd 3218 13bd
00000370: 3a1a 0dbe f25d 5d3d 1875 5abd 300a c6bc
00000380: 6fb3 3f3e 9ad7 48bd 805e fd3a a8d8 19bd
00000390: 856e 933d 5fd8 59be dfae e93d 189f ffbc
000003a0: 5e2a ad3d 10c1 043c 0e85 483d 23d9 5cbf
000003b0: 75c7 1f3d c043 84ba d8e3 7e3d dbf5 9ebd
000003c0: b4eb d1bc b8d1 2d3d d785 873d edbc 8d3d
000003d0: 1ca8 89bd 7c2a 42bd 4019 dd3a a071 f73b
000003e0: 6037 a53b 68b7 0b3d 4096 54bc 064d 7b3d
000003f0: e22a d93f 67dc eb3b 6469 f0ba ae99 043e

net.4.bias f4 [128]
0.07428633 0.036907323 0.026679406 0.00052398036 -0.06890833 -0.049659856 0.03619522 -0.0003309609
-0.025210328 -0.014024784 -0.020332474 0.06980583 0.011736944 -0.06024287 -0.04696483 -0.020935457
-0.042254683 -0.063431285 0.006427096 0.042583607 -0.008858961 0.020764692 0.047157567 0.005165016
-0.04950234 -0.008962661 -0.05318681 -0.019110437 -0.10267492 0.0408754 -0.01704947 0.04113707
-0.014203101 -0.07530929 0.03593597 0.049090058 -0.083144985 0.033763085 0.009512053 -0.027735757
0.01681262 -0.023353681 -0.027103044 0.04321853 -0.09863733 0.034569073 0.0078022094 -0.01927559
-0.01937132 -0.08526285 0.007404181 -0.020924373 -0.0689662 0.05594076 -0.05306362 -0.05348781
-0.03055251 0.036175855 0.027850812 -0.22579093 0.03318174 -0.042719204 -0.016523616 0.052001987
0.0041115438 -0.0018656693 -0.034039963 0.025725946 0.03294164 0.016015522 -0.008519118 0.015002215
0.2409057 -0.07076903 -0.001790151 0.003474444 0.026789775 -0.02457539 -0.052698188 0.028031794
-0.00086150126 -0.03229805 -0.037772954 -0.044463426 -0.016452743 0.036234103 -0.009741712 -0.033667658
-0.07257524 -0.030232348 0.24019921 -0.0116497725 -0.052140843 0.09631631 -0.014564023 -0.0659287
0.0761583 0.009728163 -0.025842682 -0.037428018 -0.059840903 0.03115356 -0.012555213 -0.060293984
-0.030743064 -0.055225756 0.29863447 0.022207621 0.055380955 0.009749762 0.045789286 -0.055318568
-0.0050910306 0.1151919 -0.013958897 0.13072781 -0.060988344 -0.055960357 -0.03500422 0.010735503
-0.010594107 -0.020647038 0.041622214 0.092160806 0.034106754 -0.07430754 -0.03393072 -0.031429343
00000000: 6e23 983d 222c 173d c58e da3c ba5b 093a
00000010: cf1f 8dbd 2268 4bbd 7041 143d d284 adb9
00000020: e485 cebc 35c8 65bc 4a90 a6bc 5cf6 8e3d
00000030: 504c 403c 3ac1 76bd 325e 40bd d680 abbc
00000040: 3f13 2dbd 43e8 81bd 649a d23b 266c 2e3d
00000050: 2d25 11bc b71a aa3c 4b28 413d 4b3f a93b
00000060: f7c2 4abd 20d8 12bc 6ada 59bd 7e8d 9cbc
00000070: 3a47 d2bd f76c 273d 55ab 8bbc 587f 283d
00000080: 20b4 68bc c23b 9abd 9831 133d a812 493d
00000090: eb47 aabd 294b 0a3d 71d8 1b3c 1936 e3bc
000000a0: 9fba 893c 3850 bfbc 3407 debc ea05 313d
000000b0: 5e02 cabd 4d98 0d3d ada9 ff3b d8e7 9dbc
000000c0: 9ab0 9ebc 4a9e aebd c69e f23b 9769 abbc
000000d0: 273e 8dbd 2322 653d 3d59 59bd 0916 5bbd
000000e0: 4249 fabc 222d 143d 6327 e43c bd35 67be
000000f0: 94e9 073d 55fa 2ebd 895c 87bc 0900 553d
00000100: 21ba 863b 7989 f4ba 7d6d 0bbd 38bf d23c
00000110: d0ed 063d fc32 833c c593 0bbc dacb 753c
00000120: fcaf 763e 5aef 90bd 80a3 eaba 7fb3 633b
00000130: 3b76 db3c 5452 c9bc 0eda 57bd efa2 e53c
00000140: 5fd6 61ba f64a 04bd d0b7 1abd 481f 36bd
00000150: e7c7 86bc 366a 143d b49b 1fbc 19e7 09bd
00000160: 54a2 94bd d4a9 f7bc c8f6 753e b0de 3ebc
00000170: a391 55bd 7c41 c53d f19d 6ebc a005 87bd
00000180: e2f8 9b3d df62 1f3c 08b4 d3bc 1f4e 19bd
00000190: bc1b 75bd c035 ff3c 61b4 4dbc d3f6 76bd
000001a0: e1d8 fbbc 6734 62bd 9ee6 983e c2ec b53c
000001b0: 24d7 623d 77bd 1f3c 8c8d 3b3d b995 62bd
000001c0: a9d2 a6bb bbe9 eb3d dcb3 64bc 83dd 053e
000001d0: eace 79bd b036 65bd 9660 0fbd f7e3 2f3c
000001e0: e892 2dbc fa23 a9bc 0e7c 2a3d cebe bc3d
000001f0: 86b3 0b3d 8d2e 98bd f0fa 0abd 0ebc 00bd

net.6.weight f4 [11, 128]
-0.4636058 0.018486455 0.07460111 -0.11617927 0.010108702 -0.19614975 -0.04053632 -0.32570964
0.012002589 -0.17941156 -0.07704277 -0.20885827 -0.011375604 -0.024473665 0.001170083 0.073248215
-0.0050920206 -0.03330223 -0.19103463 0.07839609 -0.031515226 -0.21046053 -0.11692095 0.21411814
-0.061075773 0.054658048 -0.0037768632 0.030030383 -0.17147455 -0.5173471 -0.107157186 -0.045506537
-0.028644374 -0.009125394 0.037313737 -0.20257469 -0.09012459 0.043940812 -0.0052996 0.014242124
0.0703903 0.04232785 -0.014150195 -0.0660959 0.06251715 -0.02046543 -0.09557028 -0.02771547
-0.00475207 -0.17375454 -0.18160008 -0.14095412 -0.084205344 -0.13069901 0.049330596 -0.20973036
-0.014819177 0.07203646 -0.019028809 -0.9914856 0.05358499 -0.122600876 0.025871752 -0.15603939
-0.1508507 -0.042369757 -0.025790215 -0.04472458 0.00021534503 -0.08180933 -0.21982822 -0.095650055
0.7174092 -0.16859142 0.07619362 -0.009818528 -0.1800581 0.029383248 0.024063088 0.019226491
-0.12791206 0.027719438 -0.06003631 0.0283136 -0.14837593 -0.008572118 0.2737523 -0.092046335
-0.07224119 0.052701645 -0.3165999 -0.16512485 0.0053994046 -0.10821917 0.055254094 0.016574822
-0.14317809 -0.078434244 0.010103971 -0.064685985 0.0703888 0.061437257 -0.07203836 -0.078694336
-0.17118354 -0.0782284 0.6838989 0.14789435 -0.04605424 -0.020554198 -0.07549117 -0.18046984
0.07803324 0.5348216 -0.19842912 -0.382971 0.012067117 0.07852998 -0.06259969 0.0047240555
0.07342523 -0.06333276 -0.12902892 -0.075462885 0.011351566 -0.039519858 0.005999384 -0.16678303
-0.13303094 0.02098348 -0.077778414 -0.206188 -0.07484251 -0.1799799 0.015942732 -0.34988883
0.037417993 -0.12119435 -0.0142161315 -0.18936715 -0.05309923 -0.004680055 0.061763503 0.045341093
-0.030850582 0.05518601 -0.06821718 -0.052382838 0.028913934 -0.21127295 -0.20488718 0.49400684
0.0013812263 0.07739521 -1.125997e-05 0.046464466 -0.1509197 -0.5347228 -0.046696085 0.073843695
0.051030852 -0.009889238 0.033555202 -0.18702978 -0.11984027 -0.0024815062 -0.005541803 0.024633437
-0.049448773 -0.055360723 0.019782543 -0.034447987 -0.044594925 -0.060656022 0.04076949 0.011828966
0.017946314 -0.13889068 -0.18662985 -0.17837526 -0.06711505 -0.16879657 -0.06924932 -0.20262358
0.008095503 -0.09273151 0.06032142 -1.1101723 0.076043226 -0.19811146 0.099867396 -0.20700279
-0.21198082 -0.0035793504 -0.07570151 -0.023443475 0.056034636 -0.01013221 -0.1268278 0.24565907
0.38447872 -0.14136387 -0.080484346 0.05419846 -0.19235624 -0.003096569 0.014316991 -0.015894415
-0.10801227 -0.06920844 0.041532166 -0.017088661 -0.2089762 0.050163638 0.19722643 -0.11163812
-0.008267261 0.07840911 -0.41467556 -0.10691421 0.06725864 -0.17624335 -0.037375078 0.0034393715
-0.1636078 -0.21646798 0.061177604 -0.04292663 -0.07289819 -0.042513642 -0.08620069 0.0396471
-0.12642005 -0.07381746 0.90181977 0.08042831 0.044998474 0.045723543 0.027847536 -0.13346562
-0.07372479 0.53541666 -0.11014978 -0.41105914 0.07141602 -0.02628173 0.036126517 -0.0020499073
0.0035857658 0.0050641224 -0.103198156 0.043687336 -0.046477336 -0.06200426 0.00291519 -0.13842551
00000000: bd5d edbe e870 973c 77c8 983d 66ef edbd
00000010: f89e 253c 7bdb 48be 6a09 26bd 6ac3 a6be
00000020: 82a6 443c aab7 37be 9ac8 9dbd f1de 55be
00000030: be60 3abc ff7c c8bc 785d 993a 2903 963d
00000040: f7da a6bb eb67 08bd 959e 43be 218e a03d
00000050: 1c16 01bd f782 57be 4074 efbd c941 5b3e
00000060: 972a 7abd 1ee1 5f3d 4085 77bb 4702 f63c
00000070: 0697 2fbe dc70 04bf 3a75 dbbd 1065 3abd
00000080: 9ba7 eabc ad82 15bc 4ad6 183d bd6f 4fbe
00000090: 3e93 b8bd 48fb 333d 44a8 adbb cc57 693c
000000a0: ca28 903d f85f 2d3d 38d6 67bc 4a5d 87bd
000000b0: fe08 803d 1ea7 a7bc 5aba c3bd 8e0b e3bc
000000c0: 41b7 9bbb b6ec 31be 5ff5 39be 4756 10be
000000d0: da73 acbd f6d5 05be e10e 4a3d 8ec3 56be
000000e0: 22cc 72bc da87 933d 4ee2 9bbc 00d2 7dbf
000000f0: ef7b 5b3d 2b16 fbbd fff0 d33c cac8 1fbe
00000100: 9b78 1abe e98b 2dbd 0046 d3bc 1f31 37bd
00000110: 3ece 6139 a68b a7bd a61a 61be 2de4 c3bd
00000120: 21a8 373f 3ba3 2cbe 670b 9c3d e4dd 20bc
00000130: 2761 38be 23b5 f03c f41f c53c e080 9d3c
00000140: 61fb 02be e013 e33c a2e8 75bd ecf1 e73c
00000150: dcef 17be 1272 0cbc 4329 8c3e ca82 bcbd
00000160: 30f3 93bd aedd 573d 6219 a2be 7d16 29be
00000170: 7ded b03b 03a2 ddbd 1e52 623d ecc7 873c
00000180: 479d 12be 22a2 a0bd 208b 253c 167a 84bd
00000190: 0128 903d a2a5 7b3d d988 93bd 7f2a a1bd
000001a0: bd4a 2fbe 3636 a0bd 0014 2f3f 9e71 173e
000001b0: 5fa3 3cbd 4761 a8bc 1d9b 9abd 16cd 38be
000001c0: e4cf 9f3d 12ea 083f 0131 4bbe c614 c4be
000001d0: 28b5 453c 53d4 a03d 4434 80bd 40cc 9a3b
000001e0: f85f 963d 9bb4 81bd 2820 04be 498c 9abd
000001f0: ebfb 393c 93df 21bd 7b96 c43b 2cc9 2abe
00000200: 4339 08be 8ce5 ab3c 4a4a 9fbd f222 53be
00000210: 0847 99bd a74c 38be 559a 823c a124 b3be
00000220: 9c43 193d be34 f8bd c7ea 68bc 76e9 41be
00000230: 947e 59bd 265b 99bb bafb 7c3d 95b7 393d
00000240: 5cba fcbc ba0a 623d 73b5 8bbd 638f 56bd
00000250: eadc ec3c f057 58be f2cd 51be 77ee fc3e
00000260: 440a b53a 6181 9e3d 34e9 3cb7 8651 3e3d
00000270: b28a 1abe 98e3 08bf 6544 3fbd 5d3b 973d
00000280: ba05 513d 7806 22bc 2e71 093d bc84 3fbe
00000290: d16e f5bd c4a0 22bb 0398 b5bb 10cc c93c
000002a0: cc8a 4abd edc1 62bd 000f a23c 5519 0dbd
000002b0: 2ba9 36bd 7372 78bd e9fd 263d 48ce 413c
000002c0: 2604 933c 5c39 0ebe e51b 3fbe 01a8 36be
000002d0: 9e73 89bd 02d9 2cbe 96d2 8dbd 8e7c 4fbe
000002e0: 00a3 043c 05ea bdbd 9813 773d 201a 8ebf
000002f0: 8dbc 9b3d bbdd 4abe 4787 cc3d 8af8 53be
00000300: 8011 59be 8993 6abb 6509 9bbd 880c c0bc
00000310: 9384 653d 9201 26bc 26df 01be 0d8e 7b3e
00000320: 65da c43e b1c1 10be fad4 a4bd 34ff 5d3d
00000330: 09f9 44be cfef 4abb d091 6a3c 0135 82bc
00000340: 8935 ddbd 28bd 8dbd a21d 2a3d 85fd 8bbc
00000350: dbfd 55be 6378 4d3d baf5 493e 87a2 e4bd
00000360: 6873 07bc f594 a03d 5b50 d4be d6f5 dabd
00000370: e6be 893d 2379 34be 9c16 19bd 1467 613b
00000380: ce88 27be c8a9 5dbe 5e95 7a3d d5d3 2fbd
00000390: a54b 95bd c922 2ebd fd89 b0bd ff64 223d
000003a0: 4274 01be 9c2d 97bd a9dd 663f 99b7 a43d
000003b0: 5250 383d 9c48 3b3d 8420 e43c 36ab 08be
000003c0: 06fd 96bd 1111 093f 3596 e1bd 5876 d2be
000003d0: 9042 923d c84c d7bc 66f9 133d bd57 06bb
000003e0: 2bff 6a3b f0f0 a53b 8e59 d3bd 7ef1 323d
000003f0: 055f 3ebd 2ef8 7dbd c60c 3f3b 6bbf 0dbe

net.6.bias f4 [11]
-0.12984952 -0.18962762 -0.06571447 -0.053893417 -0.038572833 -0.122378655 -0.05844019 -0.113561325
-0.053589426 0.07699704 -0.025110397
00000000: 46f7 04be be2d 42be 4f95 86bd 58bf 5cbd
00000010: 8cfe 1dbd a9a1 fabd fb5e 6fbd d792 e8bd
00000020: 9680 5bbd a0b0 9d3d 52b4 cdbc
